checkpoint_critic.pth (torch_old, 88217 bytes, 9 tensors)

bn0.weight f4 [33]
0.3402356 0.2776734 0.2895457 0.10735052 0.025277702 0.03775485 0.05892708 0.06442046
0.090408675 0.08307439 0.16791406 0.16378649 0.14237295 0.7116511 0.34529337 0.62756354
0.04450558 0.03488653 0.027864473 0.021004764 0.13798702 0.09047899 0.08520984 0.45623368
0.35367665 0.46957305 0.76126784 0.22002661 0.7758938 0.25708312 0.045797765 0.17550886
1.3819818
00000000: 5c33 ae3e 352b 8e3e 563f 943e 97da db3d
00000010: 2f13 cf3c d4a4 1a3d 865d 713d e0ee 833d
00000020: 2f28 b93d e822 aa3d aaf1 2b3e a5b7 273e
00000030: 37ca 113e c42e 363f 4bca b03e 01a8 203f
00000040: 7c4b 363d 2ee5 0e3d 0944 e43c 2f12 ac3c
00000050: 784c 0d3e 0c4d b93d 7f82 ae3d 7697 e93e
00000060: 1b15 b53e e16b f03e 73e2 423f a84e 613e
00000070: faa0 463f 66a0 833e 7096 3b3d 98b8 333e
00000080: c8e4 b03f

bn0.bias f4 [33]
0.100781724 -0.004636951 -0.07324629 0.04810177 0.0042777546 -0.0025089053 -0.015500588 -0.0014715982
0.020327507 0.0033717272 -0.00014005664 0.0025995811 -0.008335075 0.20811963 0.023946347 0.005587814
-8.411002e-05 0.003655255 0.0005153091 -0.0021233612 0.012686635 0.006939346 -0.015524219 0.047104355
-0.055903263 0.0679912 0.07325162 -0.0018083241 -0.018954929 0.0063816714 -0.003382465 0.0028550627
-0.009088422
00000000: a666 ce3d 90f1 97bb 2702 96bd 5d06 453d
00000010: 682c 8c3b 726c 24bb 2ef6 7dbc a4e2 c0ba
00000020: df85 a63c 32f8 5c3b 2bdc 12b9 bc5d 2a3b
00000030: d78f 08bc 501d 553e 212b c43c fb19 b73b
00000040: 3964 b0b8 018d 6f3b cf15 073a 1728 0bbb
00000050: 9bdb 4f3c 7463 e33b 4b59 7ebc 7ff0 403d
00000060: d2fa 64bd f83e 8b3d f204 963d 4a05 edba
00000070: 5e47 9bbc 571d d13b 59ac 5dbb 011c 3b3b
00000080: 9be7 14bc

bn0.running_mean f4 [33]
-0.5586389 -2.0802107 -0.049448736 0.41672096 -0.030119535 -0.020928307 -0.013641681 0.008854634
0.0036438748 -0.00017541063 0.029790364 0.045954004 -0.007862672 -0.52618784 -2.8751757 -0.10357342
0.038306467 0.0021686188 0.0036567226 -0.0021350759 0.078913204 -0.05399065 -0.26444837 0.03858827
0.07309541 0.019938514 0.079726 -0.99999976 0.08629239 0.0 0.99999976 0.0
0.0063543012
00000000: f502 0fbf 2c22 05c0 c28a 4abd 735c d53e
00000010: 3ebd f6bc d771 abbc 5b81 5fbc 0713 113c
00000020: 13ce 6e3b 6fee 37b9 ec0a f43c 443a 3c3d
00000030: 70d2 00bc 3fb4 06bf e102 38c0 4d1e d4bd
00000040: 3ee7 1c3d 631f 0e3b a0a5 6f3b a1ec 0bbb
00000050: 3f9d a13d 4d25 5dbd c765 87be bc0e 1e3d
00000060: 0cb3 953d 1856 a33c 6347 a33d fcff 7fbf
00000070: 11ba b03d 0000 0000 fcff 7f3f 0000 0000
00000080: be37 d03b

bn0.running_var f4 [33]
5.35778 1.6653938 4.395191 0.3918184 0.106299475 0.19566412 0.13151266 1.3248973
0.1477895 0.25185868 4.4958744 5.276523 4.836706 20.485048 4.984891 21.519352
0.19511469 0.29501277 0.17442402 0.33457464 4.2203345 1.2112201 2.3736417 15.4256
21.175867 19.196417 31.190104 6e-45 32.86325 6e-45 6e-45 6e-45
0.3235143
00000000: ef72 ab40 a02b d53f 68a5 8c40 6c9c c83e
00000010: 8ab3 d93d 2d5c 483e 41ab 063e 3c96 a93f
00000020: 2156 173e 9ff3 803e 34de 8f40 47d9 a840
00000030: 4cc6 9a40 61e1 a341 3a84 9f40 a227 ac41
00000040: 25cc 473e ea0b 973e 369c 323e 5e4d ab3e
00000050: fb0c 8740 4309 9b3f bfe9 1740 42cf 7641
00000060: 2d68 a941 4392 9941 5585 f941 0400 0000
00000070: f873 0342 0400 0000 0400 0000 0400 0000
00000080: aba3 a53e

fcs1.weight f4 [128, 33]
0.37734476 -0.69671416 0.9618228 -0.49093023 0.26402774 0.38540262 0.51159453 0.5520784
0.16255811 0.8123763 -0.22869174 -0.15823516 0.7317008 -0.12811412 0.8494497 -0.3835164
-0.664831 0.118659765 0.44542572 0.026595326 0.6444919 1.33537 0.42789403 0.3873523
-0.05996091 -0.028862402 0.2668068 0.028023748 -0.15250018 0.010685213 0.11025719 0.037176404
-0.057757817 0.25405696 0.08664354 0.2774325 -0.3522406 -0.026044434 -0.00322553 0.20510009
-0.041370027 0.5080859 0.24898471 -0.26315355 0.4746676 -0.34310803 -0.6728208 0.40894786
-0.08512325 0.3269775 0.13799849 -0.068062566 -0.011513929 -0.4643429 -0.024384595 -0.0601143
-0.3063594 0.5389521 -0.23032643 0.78525084 0.028029097 -0.013865797 -0.017619325 0.02181352
0.01678578 0.5103673 -0.3983086 -0.9253084 0.36915827 0.28536355 -0.026713192 -0.09143731
0.34141088 -0.12023467 -0.34649107 0.45854807 0.34747738 -0.76978356 0.035681255 0.106056534
0.6014837 -0.2721567 0.11524946 -0.32185245 -0.36867434 -0.104183495 -0.2591601 -0.9824004
0.82075316 -0.5763103 0.594338 -0.37372863 0.40003178 -0.11158009 -0.18556538 -0.00031558788
0.02267832 0.08901862 -0.30249223 0.56418884 0.03381652 0.37769386 0.09915863 0.014504637
0.17209926 0.2639998 -0.35491866 0.7321427 0.15339439 0.78161585 -0.61724216 0.27472273
0.025780559 -0.023919217 -0.03346139 -0.12167911 -0.30072787 0.13072038 0.146722 1.6190223
-0.12743549 1.4645398 -0.45236307 0.28611246 0.20048515 -0.27516124 -0.023855612 0.23125213
0.046371855 -0.02878272 -0.04002923 0.030111043 0.02026194 -0.029730016 -0.004881446 -0.041289933
-0.17826894 -0.41819534 0.106201336 0.010393203 -0.031713303 -0.06351909 0.092544645 -0.046392437
-0.006739677 0.067264825 -0.07946605 -0.06259041 -0.2385889 -0.04773441 0.07659716 0.16524257
0.025053276 0.021781472 0.009408917 0.13835144 -0.058698922 -0.051432036 -0.23170544 -0.006642964
-0.59318024 0.01606883 0.0038407429 0.0015137161 1.3432833 -0.0055412105 -0.49011362 0.07744193
-0.28281382 -0.05342335 -0.28632423 -0.19172736 -0.18853667 0.04073991 0.1452766 -0.04180548
-1.015723 1.1750991 0.11590658 -0.19053559 0.6284226 -0.37792182 0.44460204 0.43315157
0.2922209 0.13484213 -0.43124333 0.32053918 0.029618429 0.5231069 0.0870215 0.091174416
0.033610262 -0.30437636 0.017764201 -0.081029706 0.0614619 0.17977844 -0.03992197 -0.29435295
-0.12507878 -0.168674 -0.4959362 0.6959031 0.48914763 -0.4485171 0.27583933 0.3307643
0.6680314 0.11517008 0.30294463 0.6111339 0.17070544 -0.029502928 -0.023818359 -0.72967213
0.09903055 0.023475733 -0.33641312 -0.07931498 0.050936196 0.5116089 0.17414689 0.24138328
-0.30919698 -0.026802802 -0.39266223 0.10965673 0.14260136 -0.10561322 0.4814658 0.018874373
-0.06065691 -0.09787958 0.13354194 -0.44424385 -0.022170367 0.34483 -0.6010719 0.14996608
0.13921958 0.11640423 -0.19564849 0.344568 -0.046554342 0.13069071 0.19607197 0.001085955
-0.13498712 -0.26290917 -0.3759322 -0.18372947 0.25270593 0.03588224 -0.020421196 0.5587128
00000000: 5533 c13e dc5b 32bf 053a 763f 355b fbbe
00000010: a52e 873e 7e53 c53e dcf7 023f 0355 0d3f
00000020: a275 263e e5f7 4f3f 2b2e 6abe 6608 22be
00000030: be50 3b3f 5930 03be 8975 593f 435c c4be
00000040: 5d32 2abf e403 f33d d70e e43e 71de d93c
00000050: 6cfd 243f 67ed aa3f ed14 db3e 0a53 c63e
00000060: 9299 75bd d870 ecbc e79a 883e 0f92 e53c
00000070: 0229 1cbe 0811 2f3c 86ce e13d 4946 183d
00000080: 7693 6cbd c113 823e 2b72 b13d a20b 8e3e
00000090: e158 b4be 235b d5bc 6a63 53bb c205 523e
000000a0: 9e73 29bd eb11 023f d9f5 7e3e 10bc 86be
000000b0: a207 f33e dbab afbe fc3d 2cbf 9d61 d13e
000000c0: 1955 aebd 9869 a73e 7a4f 0d3e 6364 8bbd
000000d0: eba4 3cbc 5abe edbe 34c2 c7bc 6a3a 76bd
000000e0: 24db 9cbe c4f8 093f b1da 6bbe 3306 493f
000000f0: 479d e53c 5e2d 63bc 6756 90bc 44b2 b23c
00000100: 5582 893c 6ea7 023f 1bef cbbe 03e1 6cbf
00000110: 5002 bd3e 2c1b 923e a0d5 dabc 7c43 bbbd
00000120: 68cd ae3e 983d f6bd 4767 b1be d0c6 ea3e
00000130: 8ee8 b13e 8910 45bf 8226 123d 2b34 d93d
00000140: d6fa 193f 1f58 8bbe e907 ec3d d8c9 a4be
00000150: e2c2 bcbe 285e d5bd a2b0 84be 987e 7bbf
00000160: e11c 523f 1289 13bf 8926 183f 5c59 bfbe
00000170: f7d0 cc3e 1a84 e4bd da04 3ebe 7d75 a5b9
00000180: e2c7 b93c 654f b63d 43e0 9abe ae6e 103f
00000190: 3183 0a3d 1761 c13e ae13 cb3d dba4 6d3c
000001a0: ca3a 303e fb2a 873e e6b7 b5be b46d 3b3f
000001b0: 6b13 1d3e fa17 483f 9503 1ebf 75a8 8c3e
000001c0: c031 d33c 3cf2 c3bc cf0e 09bd e632 f9bd
000001d0: 01f9 99be 90db 053e 4b3e 163e 1f3c cf3f
000001e0: 737e 02be 0a76 bb3f 229c e7be 557d 923e
000001f0: fb4b 4d3e efe1 8cbe d86c c3bc 5ccd 6c3e
00000200: 6af0 3d3d bdc9 ebbc b1f5 23bd 6fab f63c
00000210: 5efc a53c 5d8c f3bc 89f4 9fbb a21f 29bd
00000220: 228c 36be b31d d6be 1680 d93d 4148 2a3c
00000230: cfe5 01bd 4c16 82bd 0c88 bd3d ff05 3ebd
00000240: 82d8 dcbb 24c2 893d 19bf a2bd 672f 80bd
00000250: a650 74be 2885 43bd f9de 9c3d 5935 293e
00000260: 873c cd3c 0f6f b23c dc27 1a3c 00ac 0d3e
00000270: 486e 70bd 66aa 52bd 3144 6dbe 39ad d9bb
00000280: a9da 17bf c7a2 833c f9b4 7b3b e267 c63a
00000290: b5f0 ab3f 0b93 b5bb 2cf0 fabe e099 9e3d
000002a0: f9cc 90be 71d2 5abd 1799 92be 2d54 44be
000002b0: c20f 41be e4de 263d 64c3 143e 393c 2bbd
000002c0: 3603 82bf a669 963f 6e60 ed3d c31b 43be
000002d0: 4ee0 203f f87e c1be e1a2 e33e 0bc6 dd3e
000002e0: fa9d 953e 0e14 0a3e edcb dcbe b61d a43e
000002f0: 59a2 f23c 55ea 053f 5438 b23d a7b9 ba3d
00000300: eaaa 093d 38d7 9bbe 3b86 913c e7f2 a5bd
00000310: 79bf 7b3d d717 383e 3885 23bd 6eb5 96be
00000320: a714 00be e1b8 2cbe 59eb fdbe b526 323f
00000330: 8f71 fa3e 09a4 e5be d03a 8d3e f059 a93e
00000340: 1b04 2b3f 4ade eb3d 8f1b 9b3e 4573 1c3f
00000350: 68cd 2e3e 20b0 f1bc b81e c3bc cbcb 3abf
00000360: 87d0 ca3d 2e50 c03c 573e acbe e46f a2bd
00000370: 79a2 503d cdf8 023f 9053 323e 2e2d 773e
00000380: 114f 9ebe 8d91 dbbc 060b c9be b593 e03d
00000390: 1706 123e be4b d8bd af82 f63e 6e9e 9a3c
000003a0: 6173 78bd 1775 c8bd 38bf 083e ee73 e3be
000003b0: a19e b5bc 8f8d b03e d9df 19bf b590 193e
000003c0: 948f 0e3e 5765 ee3d 1458 48be 386b b03e
000003d0: c4af 3ebd c9d3 053e 17c7 483e 9a56 8e3a
000003e0: 103a 0abe 089c 86be 2f7a c0be 9423 3cbe
000003f0: ac62 813e 41f9 123d 5a4a a7bc cd07 0f3f

fcs1.bias f4 [128]
-0.1458466 -0.33700028 -0.29546642 0.036917564 -0.5122003 -0.36365056 -1.2242644 -0.44845375
-0.24820222 -0.51527226 -0.4821064 -0.24956997 -0.4374333 -0.5433256 -0.4977321 -0.87727135
-0.26124305 -0.38046098 0.11154228 -0.42550617 -0.2798372 -0.3519549 -0.5689564 -0.39867175
-0.6804536 -0.16820116 -0.58239436 -0.25528252 -0.43189904 -0.5422432 -0.2716018 -0.25222868
-0.016877003 0.05094315 -1.0650969 -0.45454437 -0.2720023 -0.5403851 -0.6901868 -0.84680164
-0.3218085 -0.6478898 -0.32351047 -0.40144318 -0.36373118 -0.47707728 -0.85372746 -0.7034586
-0.12604266 0.5473931 -0.59714246 -0.7460127 -0.29736567 -0.54033566 -0.387265 -0.46813554
-0.6211561 -0.08421869 -0.3224368 -0.27353632 -0.23102511 -0.66169864 -0.22082625 -0.63801265
0.2802982 -0.3214519 0.015520448 -0.36305726 -0.15499532 -0.17956665 -0.2674402 -0.46802303
-0.45091718 -0.49881095 -0.4696749 -0.33465898 0.1689291 -0.59712434 -0.25279015 -0.6061604
-0.44925538 -0.58162916 -0.6823917 -0.6669754 -0.85347694 -0.08991532 -0.3423935 -0.62379783
0.143836 -0.06988626 -0.02358237 -0.23335177 -0.4346322 -0.07867465 -0.6647407 -0.796329
-0.65365654 -0.05225113 -0.7226516 -0.7150602 -0.56372285 -0.5111672 -0.6805135 -0.59619695
0.06365048 -0.09196273 -0.08794534 -0.5186492 -0.48685277 -1.1067252 0.14907758 -0.14061502
-0.32996348 -0.057040617 -0.502724 -0.53243047 -0.5851687 -0.0115583865 -0.8018483 -0.5830507
0.1933468 -0.2076586 -0.4189993 -0.23445566 -0.73327994 -1.0498286 -0.91459554 -0.29340398
00000000: d058 15be 4d8b acbe 6047 97be df36 173d
00000010: 8f1f 03bf 6830 babe b2b4 9cbf bb9b e5be
00000020: b928 7ebe e2e8 03bf a6d6 f6be 458f 7fbe
00000030: 42f7 dfbe 6317 0bbf bed6 febe db94 60bf
00000040: a6c1 85be c8cb c2be 4770 e43d f2db d9be
00000050: d246 8fbe 6f33 b4be 20a7 11bf b41e ccbe
00000060: 3532 2ebf ed3c 2cbe cc17 15bf 64b4 82be
00000070: df21 ddbe 73d0 0abf 640f 8bbe 1e24 81be
00000080: a441 8abc c4a9 503d 1855 88bf 0aba e8be
00000090: e343 8bbe ae56 0abf 15b0 30bf fec7 58bf
000000a0: 15c4 a4be 1bdc 25bf 2aa3 a5be f689 cdbe
000000b0: f93a babe 7943 f4be e28d 5abf dd15 34bf
000000c0: 5411 01be f421 0c3f 54de 18bf b0fa 3ebf
000000d0: 5040 98be 7053 0abf 9947 c6be 76af efbe
000000e0: 1604 1fbf d97a acbd 7016 a5be f40c 8cbe
000000f0: d991 6cbe 1565 29bf 4720 62be cc54 23bf
00000100: 3f83 8f3e 5895 a4be 7a49 7e3c a4e2 b9be
00000110: 18b7 1ebe 52e0 37be eced 88be b7a0 efbe
00000120: 9ede e6be 2664 ffbe 3a79 f0be 6c58 abbe
00000130: c0fb 2c3e 24dd 18bf b66d 81be 542d 1bbf
00000140: cd04 e6be a6e5 14bf 39b1 2ebf e6be 2abf
00000150: 777d 5abf 8625 b8bd 334e afbe 37b1 1fbf
00000160: bf49 133e 8720 8fbd d02f c1bc c4f3 6ebe
00000170: 1d88 debe 2d20 a1bd 722c 2abf 38dc 4bbf
00000180: 0956 27bf 4805 56bd b2ff 38bf 2f0e 37bf
00000190: 2450 10bf dbdb 02bf 2236 2ebf 5da0 18bf
000001a0: 2f5b 823d f556 bcbd b01c b4bd 32c6 04bf
000001b0: c444 f9be 2ca9 8dbf cba7 183e 62fd 0fbe
000001c0: f9f0 a8be 6ca3 69bd 85b2 00bf 5d4d 08bf
000001d0: 9ecd 15bf 635f 3dbc ee45 4dbf d042 15bf
000001e0: b4fc 453e 75a4 54be 1487 d6be 2515 70be
000001f0: 3cb8 3bbf c960 86bf ef22 6abf 0c39 96be

fc2.weight f4 [128, 132]
0.38806853 0.09210564 1.2890503 -0.638009 0.25476897 -0.09775298 0.46132472 -0.14823961
-0.014691996 0.3967313 -0.41832137 0.3028522 -0.37342286 0.4283982 0.3553192 0.38370135
-0.082204215 -0.57559055 0.40531266 -0.34409148 -0.7848611 0.09404957 0.0049249926 -0.4136726
-0.24989814 -0.06786114 -0.16864647 -0.05602074 0.33485883 -0.513321 -0.4075988 -0.4105518
-0.6023744 -0.44869488 0.24746445 -0.42053512 0.15379944 0.1573747 0.35665873 -1.8037401
0.48407397 -0.43636912 -0.41904888 0.50678444 -0.24473503 0.5680619 -0.3820274 -0.5639587
0.6791993 -0.69701487 0.1637595 0.3310647 -1.2307701 -0.2933002 -0.2586029 0.033553116
-0.32648885 0.018247519 -0.16356435 0.9740652 0.3291697 -0.2946215 0.56920636 0.13497601
-0.46246657 -0.20482954 -0.64635885 -1.2843679 -0.5378731 -0.16818124 0.5978326 0.15524366
0.903304 0.4793326 -0.28903422 -0.09754307 0.19583747 -0.1733198 0.31653032 0.078386866
0.47804442 -0.031427063 -0.5415259 -0.31238398 0.56288487 -0.016576655 0.5795782 -0.19386595
0.37942713 -0.45059246 0.09590894 -0.65835965 -0.88495886 0.16579747 1.3827919 0.30828708
0.14294024 -0.65781176 -0.49329183 -0.5055692 -0.20439899 -0.8126564 -0.054008164 0.30429164
0.12959257 0.25589538 -0.56295174 -0.5260508 -0.52347 -0.5359527 -0.5866656 -0.13785714
0.0950935 -0.7135102 0.06451198 0.31063697 -0.68610245 -1.3918548 0.5786177 -0.85686433
0.4355677 -0.039491273 -0.7028321 -0.5890327 0.6567875 0.49302357 -0.11880933 -0.4762878
0.07884457 0.05829414 0.0908059 -0.1325825 -0.4224969 -0.25973034 -0.18164866 0.35080293
-0.58916956 0.42032278 -0.0026933986 -0.8099042 0.84055203 -0.05567551 0.32122347 -0.6013776
-0.12960117 -0.7657478 0.9830805 0.2107495 -0.19118212 0.44708663 0.095526524 0.44309303
0.29890385 -0.046268366 -0.81881577 0.23899281 0.5270103 0.22561383 -0.76682043 -0.4855724
-0.24366376 0.10789056 0.39336503 -0.20014562 0.3658239 0.1188811 -1.0281231 0.41936675
0.14148131 0.077182606 -0.022112096 0.22568429 -0.22115333 0.18029015 -0.31843346 -0.167211
-0.5407332 -0.38085553 0.40964106 0.08856879 -0.14078975 0.25058326 0.46336195 0.052535955
0.18789166 0.035234842 0.013792058 -0.24445522 -0.02321694 0.048720285 -0.0028861093 -0.29045725
0.6054129 0.15174912 -0.42083335 0.0727059 -0.3137428 -0.38711634 -0.278515 -0.35813618
0.0030597378 -0.6562528 0.08355249 -0.16224211 -0.82772857 -0.6377591 -0.47760507 0.05379228
0.21493292 0.20371892 0.12583856 0.09382887 -0.26140004 -0.12228814 -0.35434747 -0.5954371
-0.03780339 0.15086082 -0.21183641 -0.33382198 -0.06227285 0.17842914 0.5083164 -0.25416085
0.25143656 0.0048588896 0.33122092 -0.9696917 0.18113486 -0.28041184 -1.0268292 -0.10402481
-1.9791224 -0.17079444 0.11657685 -0.114396 0.16201107 -0.22851147 0.44153053 0.35634893
-0.8631733 -0.7560156 0.43496677 0.24280371 0.11372067 0.1902679 -0.10025062 -0.29360723
0.27801284 -0.029208003 -0.8867626 0.487762 -0.43053472 0.10061043 -0.16650942 0.3305903
00000000: ebb0 c63e e2a1 bc3d 9aff a43f 8f54 23bf
00000010: 1471 823e b732 c8bd c132 ec3e 20cc 17be
00000020: b3b6 70bc 5d20 cb3e 382e d6be 720f 9b3e
00000030: 4831 bfbe 0257 db3e 66ec b53e 8174 c43e
00000040: af5a a8bd e759 13bf 2485 cf3e c22c b0be
00000050: a8ec 48bf 109d c03d d561 a13b e5cc d3be
00000060: 4ce5 7fbe c8fa 8abd a9b1 2cbe 0176 65bd
00000070: 9e72 ab3e 0169 03bf cab0 d0be d833 d2be
00000080: 3535 1abf 56bb e5be 5267 7d3e 6150 d7be
00000090: 9a7d 1d3e d526 213e f99b b63e f5e0 e6bf
000000a0: 8bd8 f73e c66b dfbe 938d d6be a0bc 013f
000000b0: d29b 7abe 816c 113f 1899 c3be 995f 10bf
000000c0: 01e0 2d3f 916f 32bf 92b0 273e 5081 a93e
000000d0: e089 9dbf 722b 96be 9967 84be fe6e 093d
000000e0: 8c29 a7be d27b 953c 6a7d 27be 565c 793f
000000f0: ee88 a83e a1d8 96be 82b7 113f 2737 0a3e
00000100: 6bc8 ecbe d6be 51be c677 25bf 2b66 a4bf
00000110: 0db2 09bf b437 2cbe 8f0b 193f 32f8 1e3e
00000120: ee3e 673f 156b f53e 4bfc 93be a9c4 c7bd
00000130: 9e89 483e bf7a 31be 4310 a23e 4b89 a03d
00000140: 3dc2 f43e aab9 00bd 71a1 0abf cbf0 9fbe
00000150: 3919 103f c4cb 87bc 3d5f 143f cc84 46be
00000160: 4644 c23e 0eb4 e6be e86b c43d 428a 28bf
00000170: aa8c 62bf d0c6 293e 53ff b03f ced7 9d3e
00000180: ed5e 123e 5a66 28bf bf90 fcbe fc6c 01bf
00000190: f84d 51be 400a 50bf aa37 5dbd 1dcc 9b3e
000001a0: eab3 043e b804 833e 9b1d 10bf 44ab 06bf
000001b0: 2102 06bf 3234 09bf b72f 16bf 6c2a 0dbe
000001c0: 62c0 c23d 9ba8 36bf db1e 843d cf0b 9f3e
000001d0: 69a4 2fbf 4c28 b2bf 4a20 143f 765b 5bbf
000001e0: bb02 df3e 9ac1 21bd ceec 33bf d9ca 16bf
000001f0: 3a23 283f 966d fc3e 4e52 f3bd ffdb f3be
00000200: 4379 a13d d6c5 6e3d 72f8 b93d b5c3 07be
00000210: 8451 d8be 60fb 84be 1b02 3abe 719c b33e
00000220: d1d3 16bf 8c34 d73e bb83 30bb e255 4fbf
00000230: 6b2e 573f 010c 64bd 6777 a43e e2f3 19bf
00000240: 2bb6 04be 0c08 44bf 2aab 7b3f b8ce 573e
00000250: 3fc5 43be 8ae8 e43e 69a3 c33d 17dd e23e
00000260: ed09 993e e683 3dbd e99d 51bf 88ba 743e
00000270: 26ea 063f 5007 673e 584e 44bf f29c f8be
00000280: fe82 79be baf5 dc3d 2467 c93e f9f2 4cbe
00000290: 454d bb3e ef77 f33d 8a99 83bf 3db7 d63e
000002a0: 7ae0 103e ea11 9e3d 6d24 b5bc c819 673e
000002b0: 0576 62be fb9d 383e b609 a3be 5c39 2bbe
000002c0: 7e6d 0abf 7fff c2be 79bc d13e 8e63 b53d
000002d0: 302b 10be 734c 803e c73d ed3e f12f 573d
000002e0: ac66 403e 6952 103d 16f8 613c 7852 7abe
000002f0: 7431 bebc ec8e 473d e124 3dbb d0b6 94be
00000300: 57fc 1a3f 1f64 1b3e 7877 d7be d5e6 943d
00000310: e5a2 a0be 1d34 c6be 8599 8ebe a05d b7be
00000320: e285 483b 2f00 28bf 911d ab3d cc22 26be
00000330: 05e6 53bf 2e44 23bf a788 f4be 4b55 5c3d
00000340: 6017 5c3e b19b 503e d3db 003e 5a29 c03d
00000350: 3ad6 85be 3472 fabd 086d b5be 916e 18bf
00000360: bad7 1abd 427b 1a3e a5eb 58be b7ea aabe
00000370: d111 7fbd 21b6 363e 0621 023f 5f21 82be
00000380: 4bbc 803e 5237 9f3b ca95 a93e b73d 78bf
00000390: 6b7b 393e 2492 8fbe 246f 83bf f60a d5bd
000003a0: e253 fdbf bde4 2ebe d8bf ee3d 7348 eabd
000003b0: 3be6 253e e9fe 69be 4a10 e23e 5e73 b63e
000003c0: edf8 5cbf 3d8a 41bf f7b3 de3e 89a1 783e
000003d0: 62e6 e83d 97d5 423e 3250 cdbd b053 96be
000003e0: b357 8e3e 9f45 efbc e002 63bf f1bb f93e
000003f0: 0c6f dcbe d70c ce3d 7281 2abe 2243 a93e

fc2.bias f4 [128]
0.4871899 0.48142734 -0.41967064 -1.9962971 -2.0728807 0.0120011065 1.1342607 -0.10398858
-2.0091653 -0.4858412 -0.6139451 0.42156917 -1.8912752 0.8385804 -1.9840319 -0.2398602
0.84684026 -0.38735723 1.5179567 0.24654214 0.17665079 0.32725158 -0.15418023 0.5553507
0.20316166 -2.0921028 -1.8640656 0.49073982 0.59037435 0.16856176 0.8931764 0.4982603
-1.9667901 -0.7170745 -0.06663044 -1.8581187 0.04120003 -0.2609505 0.2561044 -0.5624289
-1.5859947 0.8625701 1.0983176 -0.3570987 0.5142582 0.7474395 -1.0246388 -2.0304275
0.2529619 -0.23597592 -0.18167244 0.48241726 0.9092852 -1.5927858 0.85818446 -0.14198583
-1.0674736 -0.5055291 -2.0037026 0.74267656 -0.28723118 -0.55523276 -0.32409352 0.34514466
0.09741936 -2.0062852 0.7442323 -0.14624853 -0.05892259 1.1078019 0.5399807 -0.4510975
-0.7521611 0.53220147 -1.9952806 -1.9846606 0.060355622 0.98769164 0.5761376 0.47506666
0.44396132 -0.02480356 -1.9425591 0.05873612 -1.8660398 -1.9815474 0.73568547 0.69014794
0.69011074 -2.0071936 0.7676641 0.98150855 0.27773482 -2.06922 -0.12154067 -0.69712514
0.75795627 -0.30973303 -2.0423033 -1.8890816 -0.12830473 -0.6384413 -0.4851413 -1.8871207
0.62148976 -0.42514548 0.8804498 -0.21241318 1.0947047 -0.6238928 -2.000149 0.36321163
-2.0724392 -0.9225285 -0.18531102 -0.56423736 0.3783911 -0.8934575 -0.13628572 -0.51687247
-1.975109 0.20009546 -0.6619017 -2.1095097 -0.3885071 -0.6986884 -0.59636444 -0.052674286
00000000: f470 f93e a57d f63e 12df d6be aa86 ffbf
00000010: 14aa 04c0 4aa0 443c 742f 913f f7f7 d4bd
00000020: 2a96 00c0 2ec0 f8be 822b 1dbf ead7 d73e
00000030: 4e15 f2bf 35ad 563f c2f4 fdbf ea9d 75be
00000040: 86ca 583f b053 c6be 684c c23f 8b75 7c3e
00000050: f2e3 343e 858d a73e 6ce1 1dbe 772b 0e3f
00000060: 9c09 503e 03e5 05c0 b499 eebf 4042 fb3e
00000070: c622 173f 749b 2c3e 35a7 643f f91b ff3e
00000080: c7bf fbbf 3292 37bf 8a75 88bd d5d6 edbf
00000090: 5dc1 283d 4e9b 85be 1e20 833e 57fb 0fbf
000000a0: e001 cbbf 65d1 5c3f ac95 8c3f a4d5 b6be
000000b0: 6da6 033f 3258 3f3f 5d27 83bf 86f2 01c0
000000c0: 3984 813e aca3 71be 5708 3abe 65ff f63e
000000d0: eac6 683f 68e0 cbbf fab1 5b3f bc64 11be
000000e0: faa2 88bf 5b6a 01bf aa3c 00c0 0d20 3e3f
000000f0: f70f 93be bc23 0ebf 96ef a5be cdb6 b03e
00000100: cd83 c73d fa66 00c0 0286 3e3f 2dc2 15be
00000110: d058 71bd 74cc 8d3f 2d3c 0a3f 40f6 e6be
00000120: a18d 40bf 5b3e 083f 5b65 ffbf 5c09 febf
00000130: 7537 773d 5cd9 7c3f c17d 133f f03b f33e
00000140: e64e e33e d630 cbbc c7a5 f8bf 4995 703d
00000150: 64da eebf 58a3 fdbf e255 3c3f 89ad 303f
00000160: 19ab 303f dc75 00c0 a285 443f 2544 7b3f
00000170: 4233 8e3e 1a6e 04c0 51ea f8bd cb76 32bf
00000180: 6c09 423f 5495 9ebe 19b5 02c0 6dcd f1bf
00000190: 5162 03be e470 23bf 7164 f8be 2c8d f1bf
000001a0: f419 1f3f abac d9be 2865 613f d782 59be
000001b0: 491f 8c3f 70b7 1fbf 7102 00c0 e0f6 b93e
000001c0: d8a2 04c0 d42a 6cbf 2cc2 3dbe dc71 10bf
000001d0: 7abc c13e a1b9 64bf 7c8e 0bbe c151 04bf
000001e0: 5fd0 fcbf d3e5 4c3e 6472 29bf 3502 07c0
000001f0: 67ea c6be 3edd 32bf 57ab 18bf fec0 57bd

fc3.weight f4 [1, 128]
0.085939564 0.048630044 -0.1068192 -0.2830237 -0.3686528 -0.119451314 0.084014826 -0.09233073
-0.33247504 -0.040911574 -0.044335343 0.08679123 -0.29395863 0.08845558 -0.29779795 -0.08667366
0.08740546 -0.03546517 0.1299769 0.065299 -0.06524537 -0.07611772 -0.07029855 0.09094672
0.044816677 -0.35172305 -0.27417257 0.061831024 0.0392586 -0.17213394 0.11198378 0.07764238
-0.23735812 -0.057720833 -0.059852764 -0.24053244 -0.05260845 -0.043738257 0.07478871 -0.19719586
-0.05404631 0.100377105 0.100559644 -0.033454288 0.05695369 0.08131359 -0.074386895 -0.3311624
-0.16565886 -0.25502235 -0.08727535 0.08922568 0.08647983 -0.055530198 0.06861621 -0.046871386
-0.04634342 -0.044813793 -0.36767018 0.07964468 -0.07503083 -0.082682125 -0.05296186 0.07093441
-0.09017494 -0.32659283 0.08356058 -0.13860556 -0.10526626 0.06932215 0.08082863 -0.045263413
-0.06433414 0.2081053 -0.31027517 -0.38884044 0.18135227 0.07103152 0.056841787 0.12903677
0.12357284 -0.041664872 -0.29759046 -0.1676916 -0.27559304 -0.31402084 0.04460244 0.1223638
0.08432691 -0.32939497 0.059124276 0.07241634 0.059141763 -0.41026875 -0.17606255 -0.06465521
0.073246494 -0.106809855 -0.3120698 -0.22504923 -0.08767473 -0.11609723 -0.07130255 -0.31691116
0.031069258 -0.07772485 0.3833635 -0.086970896 0.099014126 -0.05470809 -0.3199913 -0.07488267
-0.37627605 -0.060641345 -0.054991588 -0.07459705 0.06861087 -0.038419783 -0.08814213 -0.036987867
-0.3488425 0.03864637 -0.049060713 -0.40070418 -0.063605726 -0.04951159 -0.059559498 -0.13595785
00000000: 1501 b03d 4c30 473d 06c4 dabd 7be8 90be
00000010: 0fc0 bcbe e4a2 f4bd f70f ac3d e517 bdbd
00000020: 2b3a aabe e592 27bd fa98 35bd 9abf b13d
00000030: bf81 96be 3328 b53d f978 98be f681 b1bd
00000040: a201 b33d ed43 11bd aa18 053e 7bbb 853d
00000050: 5d9f 85bd 9be3 9bbd b0f8 8fbd 4642 ba3d
00000060: b191 373d 0b15 b4be 5960 8cbe 8742 7d3d
00000070: a0cd 203d e143 30be c157 e53d f802 9f3d
00000080: 020e 73be ae6c 6cbd 2c28 75bd 234e 76be
00000090: f57b 57bd e326 33bd d32a 993d b6ed 49be
000000a0: aa5f 5dbd 8392 cd3d 37f2 cd3d 5d07 09bd
000000b0: 4648 693d bd87 a63d 2858 98bd 1e8e a9be
000000c0: 7aa2 29be 4a92 82be 6bbd b2bd f4bb b63d
000000d0: 561c b13d a273 63bd a886 8c3d 36fc 3fbd
000000e0: 99d2 3dbd ab8e 37bd 443f bcbe c01c a33d
000000f0: c4a9 99bd 3f55 a9bd 89ee 58bd 0f46 913d
00000100: a4ad b8bd 2d37 a7be cf21 ab3d 9eee 0dbe
00000110: d695 d7bd c5f8 8d3d 7b89 a53d 2166 39bd
00000120: 9ec1 83bd 8e19 553e 63dc 9ebe 1816 c7be
00000130: 69b4 393e f978 913d efd2 683d 3722 043e
00000140: c213 fd3d c9a8 2abd c75d 98be 59b7 2bbe
00000150: 881a 8dbe 57c7 a0be 0cb1 363d df99 fa3d
00000160: 96b3 ac3d 75a6 a8be 4c2c 723d 054f 943d
00000170: a23e 723d bf0e d2be be49 34be f369 84bd
00000180: 4202 963d 20bf dabd 9dc7 9fbe 4e73 66be
00000190: cf8e b3bd 62c4 edbd 1207 92bd 2e42 a2be
000001a0: f584 fe3c 352e 9fbd 3848 c43e cc1d b2bd
000001b0: ebc7 ca3d 9715 60bd e6d5 a3be 165c 99bd
000001c0: 41a7 c0be 0f63 78bd dc3e 61bd 57c6 98bd
000001d0: db83 8c3d 105e 1dbd dc83 b4bd 9780 17bd
000001e0: 7c9b b2be a84b 1e3d e3f3 48bd 1929 cdbe
000001f0: b843 82bd aacc 4abd a9f4 73bd 8938 0bbe
