checkpoint_actor.pth (torch_old, 93021 bytes, 18 tensors)

bn0.weight f4 [33]
000000 b1 6a 21 3f 8a 17 e9 3e b0 ad 0e 3f 6d cf e5 3d
       0.63053423 0.4552577 0.55733776 0.11221204
000010 b6 c6 9c 3d e4 a5 92 3d 6a 5c bc 3d f1 ac ef 3d
       0.076550886 0.071605474 0.09197314 0.11702908
000020 d7 f2 73 3e 5b 45 08 3e 1b d0 bc 3e ac 29 da 3e
       0.23823105 0.13307707 0.36877522 0.42609918
000030 a6 b6 ad 3e 64 09 7b 3f d8 79 15 3f a8 b9 52 3f
       0.33928412 0.98061204 0.58389044 0.8231454
000040 07 98 9a 3d 72 a2 b3 3c 19 24 a4 3c c0 15 35 3d
       0.07548528 0.021928046 0.020036744 0.044210196
000050 ce 36 73 3e 92 ff 58 3e 5d c7 78 3e a5 68 44 3f
       0.23751375 0.21191242 0.24294801 0.76722175
000060 0c 4f 12 3f f6 8a 31 3f 9d 9c 38 3f a8 4e 61 3e
       0.57151866 0.6935266 0.7211397 0.22002661
000070 e5 9e 1f 3f 66 a0 83 3e 70 96 3b 3d 98 b8 33 3e
       0.6235183 0.25708312 0.045797765 0.17550886
000080 2d f7 73 3f
       0.95299035

bn0.bias f4 [33]
000000 03 34 0b bb d5 59 ad b8 a0 aa 86 ba 58 0b 20 ba
       -0.0021240718 -8.266015e-05 -0.0010274239 -0.0006105206
000010 0f 7b 66 b9 c7 0e 21 39 2e 19 7e b9 da 40 3a b9
       -0.00021980352 0.00015359661 -0.00024232708 -0.00017762501
000020 0d c7 47 b8 39 59 07 b9 69 3b 8b ba f6 72 7c b9
       -4.7630678e-05 -0.00012907841 -0.0010622564 -0.00024075419
000030 79 b0 54 ba 3f ce 92 39 dd 78 7a 3a 82 1b 0a ba
       -0.00081134547 0.00028000955 0.0009554753 -0.0005268381
000040 3e 7a d9 b7 91 7b 09 ba f3 85 97 ba d2 b1 57 39
       -2.592534e-05 -0.0005244548 -0.0011560306 0.00020570241
000050 91 39 fa ba ca e3 35 3a 3a 90 5a b9 b2 6d 3d 3a
       -0.0019090642 0.0006938545 -0.00020843829 0.00072261237
000060 0a 1c 09 ba 14 6a 1f ba 44 cd 23 3a 6d 87 60 ba
       -0.00052303134 -0.00060811755 0.00062485435 -0.0008565102
000070 33 9e ae 3a ec 17 fe 39 ae 07 29 3a 15 a5 8d b9
       0.0013322294 0.00048464478 0.0006447983 -0.0002701661
000080 53 88 bb ba
       -0.0014307596

bn0.running_mean f4 [33]
000000 da 1f 12 bf d2 3f 05 c0 79 4b 4d bd b3 21 d7 3e
       -0.5707985 -2.0820203 -0.050120804 0.42017898
000010 6a b5 fc bc 36 aa 94 bc 98 94 4c bc de 6b f3 3b
       -0.030848224 -0.01814757 -0.012486599 0.0074286303
000020 18 f1 f3 3a ad 6f f2 bb 8e 7d a1 3c 49 b2 d9 3c
       0.001861128 -0.0073985667 0.01971319 0.02657427
000030 1e 59 0c bc 7a c5 13 bf b9 61 38 c0 ab 99 d2 bd
       -0.008566169 -0.577232 -2.8809645 -0.10283216
000040 12 a5 18 3d 0f c7 43 ba 48 f2 82 3b 63 4d 60 ba
       0.0372668 -0.0007468322 0.0039961673 -0.00085564534
000050 23 b0 9e 3d 60 c2 73 bd c9 f7 8e be ad 4f ac 3c
       0.07748439 -0.059511542 -0.2792342 0.021034086
000060 13 e1 00 3e 41 32 a6 3c 15 bb ec 3c fc ff 7f bf
       0.12585859 0.020287635 0.028897801 -0.99999976
000070 f0 35 94 3d 00 00 00 00 fc ff 7f 3f 00 00 00 00
       0.0723685 0.0 0.99999976 0.0
000080 c3 21 74 3b
       0.003725157

bn0.running_var f4 [33]
000000 9a 6b ab 40 54 d4 d8 3f 19 6f 8b 40 2a 90 c8 3e
       5.356885 1.6939797 4.3573117 0.39172488
000010 96 0b d9 3d 87 9d 45 3e 0f bb 06 3e 90 4e ab 3f
       0.10597913 0.19298373 0.13157295 1.338335
000020 fa ec 14 3e 4f 76 7c 3e d1 da 8b 40 54 a3 aa 40
       0.14543524 0.24654506 4.370461 5.3324375
000030 43 45 9b 40 44 ad a6 41 9b ea a3 40 24 fd a9 41
       4.852205 20.834602 5.1223884 21.248604
000040 7d d0 47 3e 73 6a 96 3e f2 2b 33 3e fb b0 ab 3e
       0.19513126 0.2937809 0.17497233 0.33533463
000050 de 1a 88 40 4c 92 a2 3f 69 dd 19 40 fb 3e 79 41
       4.2532797 1.2700896 2.4041388 15.577876
000060 ac 0e a9 41 2f 6c 9f 41 e2 91 fb 41 04 00 00 00
       21.132164 19.927824 31.446232 6e-45
000070 f3 78 02 42 04 00 00 00 04 00 00 00 04 00 00 00
       32.618114 6e-45 6e-45 6e-45
000080 0d ec a8 3e
       0.32992592

fc1.weight f4 [128, 33]
000000 88 3a 08 be 83 4a 30 3d 74 d9 0b 3d d4 7b 3c bd
       -0.13303578 0.04303981 0.034142926 -0.04601653
000010 3a 3b 2a 3c 43 b4 46 3d 8b 12 8f 3b de 98 81 bc
       0.010390097 0.048511755 0.004366224 -0.015819963
000020 be dc 47 3d a7 39 44 3d 47 af cb bc dd a1 62 3d
       0.0487945 0.047906544 -0.024863852 0.055330146
000030 86 aa e1 bb 93 6a 08 3e d6 42 37 bd 6f 8e 9a bd
       -0.006886783 0.13321905 -0.044741474 -0.07546698
000040 9e 3d 9f 3c b1 e6 a5 3c 61 7a 13 3b 42 6e 3d bb
       0.019438561 0.020251604 0.0022503363 -0.002890483
000050 b8 c2 23 3d 7a ca cf bc 60 22 2c 3c 28 40 07 3d
       0.03998062 -0.025365103 0.0105062425 0.03302017
000060 1f 70 3c bd df c3 2b 3c a2 c2 12 be 5d 52 73 3d
       -0.046005365 0.010483711 -0.14332059 0.05940472
000070 53 c9 6e 3d 4a 3f ad bd e0 8e 66 bc d3 7c 80 3d
       0.058297466 -0.08459337 -0.01407215 0.06273808
000080 0c f7 c9 3d 08 d0 01 bd 6d 56 c8 bc e8 d5 ee 3d
       0.098615736 -0.031692535 -0.024455274 0.11661893
000090 d3 0a 68 3b e6 2f fd bd d0 4a 9e bb 7e dd 7b 3d
       0.0035406842 -0.123626515 -0.0048306957 0.06149053
0000a0 d8 74 53 bb c9 95 88 bc 0e 2a 67 3d b1 39 45 bd
       -0.003226569 -0.016672986 0.05643659 -0.048150722
0000b0 81 e2 5c bd 39 7e b8 3d ea bb 57 bd 45 90 31 3d
       -0.05392695 0.0900845 -0.052669443 0.043350477
0000c0 b2 ee df bc 8b 3b 3e bc d1 42 ac ba 3e ea a9 bc
       -0.027335498 -0.011610876 -0.0013142471 -0.020741578
0000d0 17 2c 04 bd dc 6e fd 3c 5b 64 91 3c 04 30 ab 3b
       -0.03226861 0.030936651 0.017748049 0.00522423
0000e0 a7 a5 51 3d 15 41 55 3d 04 eb be 3c 8e e6 c3 3d
       0.05118337 0.05206402 0.023305424 0.09565459
0000f0 68 45 2f bd c2 e6 75 bd 54 10 8d 3b 9c d4 32 bd
       -0.0427908 -0.06003452 0.004304925 -0.04365979
000100 e6 fc 1b 3d 73 84 73 3e 32 60 17 3d 6a 0d 5f bc
       0.03808298 0.23780994 0.036956973 -0.013614038
000110 12 b9 2c 3e 11 6b 6d bb 2b d9 58 3c a3 ff 3e bd
       0.16867474 -0.0036227147 0.013235371 -0.046630513
000120 a6 fb d9 3d 26 71 93 3d 36 01 6a 3c c3 77 9f 3d
       0.10643701 0.07199316 0.014282515 0.077865146
000130 d9 a3 c0 bc 78 e7 ef bc eb 5e d6 3c 36 95 13 bd
       -0.023515629 -0.029285178 0.026168307 -0.03603097
000140 c6 2f 38 3d 37 b3 2d be cf c0 c0 bc 21 4b 90 bd
       0.044967435 -0.16962896 -0.023529438 -0.0704558
000150 e5 7a dc bc ab 53 33 3c 4f 1b 57 3d 95 89 a4 3d
       -0.02691407 0.010945241 0.052516278 0.08034054
000160 a6 f0 ae 3d 82 03 a4 3d 1d 9b b3 3a 1e ea ea 3b
       0.08541994 0.080084816 0.0013702844 0.007169022
000170 5f 47 29 3e 24 9c ce bc 58 1e 14 bd 87 61 9a bd
       0.16531132 -0.025220938 -0.03616175 -0.07538133
000180 52 65 af bd 65 b0 5f 3c 89 34 96 bc 21 a6 4c bd
       -0.08564247 0.013652896 -0.018335598 -0.04996312
000190 60 38 17 3d f4 9f f5 bd 6d f7 82 3c d7 c6 c1 bd
       0.036918998 -0.11993399 0.015987122 -0.09461754
0001a0 d3 8d f9 bb 39 38 e9 bc 06 05 80 3d 58 be a8 bc
       -0.0076157837 -0.028469192 0.06250958 -0.020598575
0001b0 f9 4b bc 3d 43 46 65 bd da bb 55 bb b7 d6 e1 bc
       0.09194178 -0.05597521 -0.003261319 -0.027568204
0001c0 10 6d 57 3d 8b 37 68 be e6 31 a1 3d e5 6d e2 3d
       0.052594244 -0.22677438 0.078708455 0.11056117
0001d0 8f 56 28 bd 0a 8f 24 bc 20 da 81 3d 37 b5 27 bd
       -0.041098174 -0.010043869 0.06340432 -0.040944304
0001e0 1b 31 9f bd 5a 84 47 3c 60 27 18 bd c8 8e 2e be
       -0.07773038 0.012177551 -0.037146926 -0.17046654
0001f0 0a 48 89 bb 4d 1c 1e bd 68 66 82 bd 1c da 40 3e
       -0.004189496 -0.03860121 -0.06367189 0.18833202
000200 32 e7 87 3b 7e 95 03 3d a6 67 69 bd f5 d4 5a 3d
       0.0041474337 0.03212499 -0.056983612 0.053425748
000210 f6 13 9b bc b5 4c d7 3d 2d d9 e1 3d 79 63 06 bc
       -0.018930417 0.105126776 0.11027751 -0.008202427
000220 1f 54 45 3c b3 49 de 3c 72 60 9f 3d 59 1b 74 bc
       0.012043982 0.027134752 0.07782067 -0.014899098
000230 fe 6c 04 3e a3 76 c3 3d be 6a 13 3d 9b 69 88 3d
       0.12932202 0.095441125 0.03599047 0.06660768
000240 bc 8c 73 bd e0 a2 c9 3c 33 d7 93 bd 67 58 6e be
       -0.059460387 0.024613798 -0.0721878 -0.2327591
000250 28 ae b0 3c b7 17 2d be 76 bb 85 bd 79 af 9f bc
       0.02156742 -0.16903578 -0.06529896 -0.019492852
000260 e1 ae 36 bd 62 79 d4 3c 65 9b 37 bd 11 95 06 bc
       -0.04460037 0.025936786 -0.04482593 -0.008214251
000270 0e 6a d1 bc b6 a1 55 be e0 0c 8a bc 9f 0e a3 3d
       -0.025563266 -0.20862469 -0.016851842 0.07961773
000280 e1 07 09 bd bf 97 8b 3d 35 86 91 bd 18 04 a2 bc
       -0.03345478 0.06816053 -0.07105676 -0.019777343
000290 2f 14 a6 bd 4a 41 87 3d 61 27 2c 3e d4 65 ac bd
       -0.081093185 0.0660425 0.16811897 -0.0841786
0002a0 a0 8f 1b bd 61 17 39 3c 03 0a fd bc 3f a4 3c 3d
       -0.03797877 0.011297078 -0.030888563 0.046055075
0002b0 2d 53 3b 3d d9 7d 71 3d ac 8c 93 bd c6 3f 8c b8
       0.04573362 0.05895791 -0.072045654 -6.687599e-05
0002c0 fc 73 26 bb 3f a2 12 ba 6f 6a 02 be 62 81 18 be
       -0.0025398722 -0.00055936346 -0.12735914 -0.14893106
0002d0 01 c2 ae 3c 11 4d cc 3c 88 4c 1c 3c 2b 9e 2d bd
       0.021332743 0.024939092 0.009539731 -0.04238717
0002e0 66 2d ac 3b 32 90 b7 bd 7a a2 ca bc fb e9 53 bd
       0.0052544354 -0.0896305 -0.024735678 -0.051736813
0002f0 d3 47 a6 bd 84 28 3e bd 6c 71 01 be 86 da 15 bd
       -0.08119168 -0.046425357 -0.12640923 -0.036585353
000300 93 60 09 bd b0 ec 8f 3b 74 15 93 3c e7 86 94 3d
       -0.033539366 0.004392229 0.017954566 0.07252293
000310 40 dc af 3c 9f 26 10 be 7e 11 47 3c 74 82 09 bd
       0.021467328 -0.14077233 0.012150167 -0.033571675
000320 78 34 1c bd e1 17 df bd 11 8e 15 bd 27 49 f9 bc
       -0.038135976 -0.108932264 -0.03651244 -0.03043039
000330 68 ab d8 3c bc 28 a3 bd 6e 9a 0f be 9e 58 bb ba
       0.02644892 -0.07966754 -0.14023754 -0.0014293378
000340 12 b9 11 bc 85 f7 09 3d 52 84 49 3e 2b 6a d9 bd
       -0.008894222 0.03368332 0.19679382 -0.10615953
000350 96 51 1d be b7 e2 84 3d 88 c0 39 bb c5 07 92 3d
       -0.15363154 0.06488555 -0.0028343517 0.07130388
000360 46 bf fa 3b 54 5e 3f bd 1e b9 04 be 82 2c 20 bd
       0.007652196 -0.046720818 -0.12961242 -0.039104946
000370 c2 18 69 bd 20 98 d4 3d c6 c6 a9 bd bb 0f 3a be
       -0.056908377 0.10380578 -0.08289866 -0.18170063
000380 d9 74 21 bc 7e 25 a2 bd e1 e3 ff bb 3a ae d0 3b
       -0.009854519 -0.07917307 -0.0078091477 0.0063684257
000390 2a 5b 8b bb c4 61 81 bd 32 97 f3 3c c5 13 1b 3d
       -0.004252811 -0.063174754 0.029735181 0.03786065
0003a0 85 cc 33 3c 8e 97 a0 3d d0 0a 86 bd 63 f9 7f 3d
       0.010974054 0.07841407 -0.06545031 0.062493693
0003b0 7e b1 40 bd e9 a6 2d bc b4 85 3c be 88 d8 00 bd
       -0.04704427 -0.0105988765 -0.18410379 -0.0314565
0003c0 ad 3a 35 3e 52 1f 24 bd d1 af c8 bc 0e e9 b7 bd
       0.17698164 -0.040068932 -0.024497898 -0.089799985
0003d0 da b6 71 bc 34 26 63 bd 72 63 64 3b a9 3e 2c 3d
       -0.014753068 -0.055456355 0.0034849313 0.042051945
0003e0 8f a6 f8 bd 8d 7e 80 bd 7a f2 03 3d a0 8d 00 3e
       -0.121411435 -0.06274138 0.032213666 0.12554026
0003f0 d9 a4 d2 bd 2f a4 2e 3d e2 bf b9 bd df 8a 77 bd
       -0.102853484 0.042637046 -0.09069802 -0.060435172

fc1.bias f4 [128]
000000 b5 b4 fc 3d 6e e4 3f bd e4 da 1b 3e b8 b7 82 3d
       0.12339155 -0.046848707 0.15220219 0.06382698
000010 00 77 04 be 2d a5 58 3d ba fb 29 be 2a 05 cc bd
       -0.1293602 0.0528919 -0.16599932 -0.099619225
000020 95 63 2c 3e 74 b5 2c 3e 7c f4 cb bd b0 10 a9 3c
       0.16834863 0.16866094 -0.09958741 0.02063784
000030 d0 da 2e be a9 78 c4 bd d8 97 f6 3c 5b 31 25 be
       -0.17075658 -0.095933266 0.030101702 -0.16132109
000040 62 40 78 bd c4 44 a7 bd 50 d6 04 be 06 58 be 3d
       -0.060608275 -0.08167413 -0.12972379 0.09294133
000050 cf 97 e6 bd 7c a2 1e 3e f5 e4 05 3d f5 4f 6e 3d
       -0.11259424 0.1549167 0.032689054 0.05818172
000060 bc dc fe bd 11 fa 2e 3c 36 17 24 3e e4 c2 ba bd
       -0.124444455 0.010679738 0.1602448 -0.09119204
000070 d1 3c 8e bd 4f 2d 87 bd 6b de 11 bd 3e 6c d7 3d
       -0.069451936 -0.06600439 -0.035612505 0.105186924
000080 e9 59 b6 3d 58 b8 7c bd 82 90 f4 3d 2f 40 22 be
       0.08903868 -0.06169924 0.11941625 -0.15844797
000090 32 e3 58 bd 3b be e4 bc 1b a3 02 bc ed f7 39 bc
       -0.052951045 -0.02792274 -0.007973458 -0.011350614
0000a0 b3 21 77 3d 31 79 6d 3d a9 45 19 be 95 fd 93 3d
       0.060334872 0.057976905 -0.1496798 0.07226101
0000b0 ec 88 8b 3c f1 ee e5 3d bf 6a c2 bc f4 0d 22 be
       0.017033063 0.11227215 -0.023732541 -0.15825635
0000c0 5e a9 45 3d e7 68 93 bd a1 6b e6 bd 51 0a 00 bd
       0.048257224 -0.07197743 -0.11250997 -0.03125984
0000d0 80 c9 0e 3e 5a 29 13 be 3d 87 8e bd 95 18 2a be
       0.13944054 -0.14371243 -0.069593884 -0.1661094
0000e0 ce 7e ed bc 1a 63 3e 3d 8b 06 af 3d 59 3a 5c bd
       -0.02899113 0.04648123 0.0854617 -0.053766582
0000f0 ac 8a 01 3e d3 28 9d 3d 7d bb ce 3d 89 37 b9 bd
       0.12650555 0.07673802 0.10094354 -0.090437956
000100 d6 70 f2 3d 59 d3 36 bd e1 c5 04 3e 6e b9 fe 3d
       0.11837928 -0.04463515 0.1296611 0.12437712
000110 32 b5 1a be cc 9a 9d 3c 92 f7 a8 3c 2f 7a fe bc
       -0.15108183 0.019238852 0.020625863 -0.031064121
000120 f7 6e f9 3d e6 ea 87 3d 57 a6 2d be 3d 96 f9 3d
       0.12179368 0.066366 -0.16957985 0.12186859
000130 67 91 22 3d b5 aa 5c 3d 29 b5 06 3d 14 36 20 3c
       0.039689448 0.053873736 0.03288761 0.009778518
000140 98 87 bc bd a3 3c 03 3d 15 f8 8a 3b fe be 89 3d
       -0.0920555 0.03204025 0.0042409995 0.06725882
000150 d1 7b 22 bd b0 49 05 3e 65 2e b1 bb fe de ee bc
       -0.03966886 0.13016391 -0.005407142 -0.029159065
000160 48 9d 7f bd e3 1b 1f 3e 4d f8 d5 bb 43 4f 89 bd
       -0.062405854 0.15537982 -0.006529844 -0.06704571
000170 ab 35 9e bd db dd 29 3e 5d e1 1c be f7 8f e2 bd
       -0.0772508 0.16588537 -0.15320344 -0.11062615
000180 48 d2 f8 3b 17 ca 3e 3d f1 bf ce 3c d7 38 7a bd
       0.007593427 0.046579447 0.02523801 -0.061089363
000190 40 7f ae bd bc 5a 31 3d 57 80 22 be c2 bb 15 3d
       -0.08520365 0.04329942 -0.1586927 0.036556013
0001a0 b8 e7 35 3d aa 0b 08 be 59 73 e8 3d 06 70 1e be
       0.044410437 -0.132857 0.11350126 -0.15472421
0001b0 8a 0f cc bd 38 05 34 be 3b 15 20 3e 1a 75 9f 3d
       -0.09963901 -0.17580116 0.15633099 0.07786007
0001c0 16 65 aa 3c b2 8e 25 be 69 98 c9 3d 0b 2b bb bd
       0.020800155 -0.16167715 0.09843523 -0.09139069
0001d0 3b 0a 18 be 6f e5 c3 bd 2e 3d d6 3c 21 4d 23 be
       -0.14847653 -0.09565245 0.02615222 -0.15947391
0001e0 37 d5 27 3e 13 ec 41 3d 83 48 30 3e 06 33 b3 bb
       0.16389929 0.04734428 0.17215161 -0.005468729
0001f0 f2 ee 98 3d d0 d2 a8 3d 45 27 ea 3d 32 e5 97 3d
       0.0746745 0.08243334 0.11433271 0.074167624

bn1.weight f4 [128]
000000 fb 7d cb 3e 18 36 4e 3f 4c 58 a6 3e 47 e3 b2 3e
       0.39744553 0.8055129 0.3248924 0.34939024
000010 69 3e f7 3e 94 e9 1d 3f 4a 5e 03 3f 11 30 a8 3e
       0.48289803 0.61684537 0.5131575 0.32849172
000020 68 d9 0c 3f 30 63 d6 3e ee 8f 1b 3f 6a a5 1b 3f
       0.55019236 0.4187255 0.60766494 0.60799277
000030 ee 29 b2 3e f2 c8 88 3e d4 05 3c 3f 36 8a 02 3f
       0.34797615 0.2671581 0.73446393 0.50992143
000040 36 b0 42 3f fe fc 04 3f 85 30 33 3f 80 fd 2e 3f
       0.76050127 0.51948535 0.6999591 0.6835556
000050 50 8d 91 3e 2d 93 62 3f 1b db 35 3e 5d 01 8b 3e
       0.28428125 0.8850582 0.17759363 0.27149478
000060 6b a7 3a 3f e2 b0 34 3f 97 be 07 3f d1 db 51 3f
       0.7291171 0.705824 0.5302519 0.8197604
000070 de 9f 85 3f 06 5a 65 3f 44 21 11 3f bc 26 4d 3f
       1.0439413 0.8959049 0.56691384 0.8013723
000080 e0 78 46 3f 06 ce 49 3f 25 08 e3 3e fa bc 27 3f
       0.7752819 0.7882999 0.4434215 0.6552273
000090 77 8b 08 3f 8f b9 12 3f 74 a0 ff 3e 2f 3b 46 3f
       0.53337806 0.5731439 0.49927104 0.77434057
0000a0 9e f4 4a 3f bc 4b 61 3f ac 7d fc 3e db 9b bc 3e
       0.79279506 0.88006186 0.4931463 0.36837658
0000b0 94 d6 bf 3e f0 b1 47 3f f4 ee c9 3e 0b fc 1d 3f
       0.37468398 0.78005886 0.3944012 0.6171271
0000c0 c7 53 24 3f dc 9c 27 3f f8 d6 0e 3f ee 42 2b 3f
       0.64190334 0.65473723 0.55796766 0.66899
0000d0 0b dc ad 3e 3f e0 1c 3f e9 e6 14 3f 8f aa b1 3e
       0.33956942 0.6127967 0.5816484 0.34700438
0000e0 9b 20 1a 3f bd 07 48 3f d8 80 d7 3e 04 87 a6 3e
       0.60206 0.7813681 0.42090487 0.32524884
0000f0 85 7f 80 3e d6 c4 4b 3f 3d 2d 1d 3f b5 83 f7 3e
       0.2509729 0.7959722 0.61397153 0.48342672
000100 ac 84 99 3e d1 02 29 3f 14 3e 7f 3e 2e cd 47 3f
       0.29984033 0.6601992 0.24926025 0.78047454
000110 f2 4e 87 3e 1c 2a a4 3e 9c 21 0c 3f 88 a8 dc 3e
       0.26427418 0.32063377 0.54738784 0.4309733
000120 e3 49 54 3f 6b 40 2f 3f 9e a2 1f 3f 44 44 29 3f
       0.8292524 0.6845767 0.6235751 0.6611979
000130 f8 b6 4c 3f cf 63 13 3f fa 4e c2 3e f8 11 0e 3f
       0.7996669 0.5757417 0.3795088 0.5549617
000140 45 ac 29 3f 29 e3 a8 3e 7f 90 df 3e ff 32 36 3f
       0.6627849 0.3298581 0.4366493 0.71171564
000150 52 3c 47 3f 9e 6f 21 3f c6 4a 06 3f 35 61 14 3f
       0.77826416 0.6306094 0.52457845 0.57960826
000160 82 b4 ad 3e 2a 8d 57 3f d1 28 08 3f 13 63 35 3f
       0.3392678 0.84199774 0.5318728 0.708543
000170 dd 4e d8 3e 72 2d 5b 3f 47 c8 33 3f 1f 31 98 3e
       0.42247668 0.8561622 0.70227474 0.29724976
000180 53 27 cb 3e bf 2d 51 3f 3d f2 17 3f 4c 13 1a 3e
       0.3967844 0.8171043 0.59354 0.15046424
000190 ac cf e4 3e 23 d0 3c 3f a5 c6 03 3f 0d 32 0a 3f
       0.4468969 0.7375509 0.5147498 0.5398262
0001a0 d6 d2 fd 3e 9e 21 a3 3e 0f 91 99 3e e6 01 50 be
       0.49574918 0.31861585 0.29993483 -0.20313224
0001b0 7b 16 3b 3f 1a 6c 6d 3e 9f ba 8e 3e 00 04 0f 3f
       0.7308118 0.23185769 0.27876756 0.5586548
0001c0 cb 36 e1 3e af c8 06 3f 29 e1 ab 3e 75 69 d5 3e
       0.43987116 0.5264997 0.3357022 0.4168202
0001d0 92 5a 5a 3f 1f 5d 06 3f ad a3 af 3e 93 f5 cc 3e
       0.8529445 0.5248584 0.34304562 0.40031108
0001e0 7b a7 da 3e 60 5d 70 3e 09 c6 8e 3e e4 5e 0d 3f
       0.42705902 0.2347312 0.27885464 0.55222917
0001f0 f6 cd c5 3e 24 5b 36 3f bf c2 0a 3f d5 2e 1a 3f
       0.38633698 0.7123282 0.5420341 0.6022771

bn1.bias f4 [128]
000000 a5 60 83 be 9a 06 19 be 08 65 69 bd 86 8b c3 3d
       -0.2565967 -0.14943925 -0.056981117 0.09548096
000010 30 62 57 3d 14 b5 ce be c7 b8 95 bc 0d 2b 0b bd
       0.052583873 -0.40372527 -0.018276585 -0.033976603
000020 1c 35 9c be 4b f2 de 3a 80 82 68 be f8 57 84 be
       -0.3050927 0.0017009465 -0.22706032 -0.25848365
000030 52 25 4e be 96 bb a0 be 56 1f 75 be c5 99 ae 3c
       -0.20131424 -0.31393117 -0.23937735 0.021313557
000040 45 2e ae be f0 df a3 3d 00 4f de bd 79 d2 30 be
       -0.34019676 0.08001697 -0.10854912 -0.17267789
000050 de b9 68 3d 86 db 8c bd fd 8c 15 3e 5a 74 ae bd
       0.05681788 -0.06877808 0.14604564 -0.08518286
000060 fa fd 96 3c 29 1f 4c bd 3b c6 a6 bc 36 82 97 bd
       0.018431652 -0.049834404 -0.020358196 -0.07397883
000070 96 28 b8 bd a3 7a 18 be f6 26 74 bd 1c 44 04 be
       -0.08992116 -0.14890532 -0.05960747 -0.12916607
000080 bc b1 99 be 9c 9c 4d bd 40 1e 7c 3e c4 a3 3c be
       -0.30018413 -0.050198182 0.24620914 -0.18421847
000090 28 03 de bd f3 6d 54 bd 60 d3 03 3e b5 2e 25 bf
       -0.10840446 -0.05186267 0.12873602 -0.64524394
0000a0 d7 90 04 bf 58 cd 88 be 09 0a f5 3d 02 0a 93 39
       -0.5178351 -0.26719165 0.11964805 0.0002804548
0000b0 16 e5 15 be a8 4a 0b be f1 ef 10 3d bd 6e 96 be
       -0.1463817 -0.13602698 0.035385076 -0.29381362
0000c0 3e 99 ca bd b8 0a bf bd 28 34 7d 3b 15 13 2c 3e
       -0.0989251 -0.09328216 0.0038635824 0.16804154
0000d0 a0 cd be bd 6e f0 ad bd 19 5c 58 3e 78 fe 61 be
       -0.093165636 -0.08493124 0.21128882 -0.22069728
0000e0 47 c4 71 bc ef bd 4f bd 46 8c bc 3d 9b 85 78 be
       -0.014756269 -0.050718244 0.092064425 -0.24269716
0000f0 38 ad c7 3e 78 fb 02 3d a8 94 00 3c 1d 6f b8 3d
       0.38999343 0.0319781 0.007847942 0.09005568
000100 aa da 62 3e 8b 97 e7 be 71 da f0 3d 97 6f bd bd
       0.22153726 -0.45232806 0.117604144 -0.092498
000110 08 68 73 3c 68 f3 17 bf 6a 1c 17 3c 80 74 a9 bd
       0.014856346 -0.59355783 0.009223083 -0.08274174
000120 0d ac d2 be c7 00 63 be 7e 6c f2 be e6 f2 d8 bd
       -0.4114689 -0.22168265 -0.47348398 -0.10593204
000130 8b 96 47 be d7 4f 88 be 1e b8 d2 bb 70 c3 2f be
       -0.19491021 -0.26623413 -0.00643064 -0.17164397
000140 90 c4 9c bd 2a 45 8c 3d f1 36 0b bd f9 dc 7d be
       -0.07654679 0.068491295 -0.033987943 -0.24791326
000150 5f 47 c4 3d 70 89 0a be 58 04 b0 bd 91 29 c2 3d
       0.095839255 -0.13528991 -0.085945785 0.094805844
000160 c6 ed 10 3e d6 40 c7 bd 6a 7d 1f 3e 9b 4d c3 be
       0.14153203 -0.09729163 0.15575185 -0.38145146
000170 42 41 9a be f6 2d 2a bd 7e 5a 9c 3d 0a 12 a1 be
       -0.30127913 -0.041547738 0.076344475 -0.31459075
000180 0d 16 16 3e f8 2b aa be 3d d6 27 3e 29 9a 26 3e
       0.14656849 -0.3323667 0.16390319 0.16269745
000190 aa 8c 39 bd cc ac ee bd c6 24 9c bd 89 74 1e bd
       -0.045300163 -0.11654052 -0.076242015 -0.038685355
0001a0 cd f2 7b be 92 73 12 be 57 2a f9 bc 40 8c 4e 3e
       -0.2460434 -0.14301899 -0.030415697 0.20170689
0001b0 dc b9 d3 be 16 34 57 bd 34 2e 0a be 72 10 80 bd
       -0.41352737 -0.052539907 -0.13494188 -0.06253137
0001c0 89 60 54 be 69 ea 8a 3d d6 68 49 be 63 f7 8a 3d
       -0.2073995 0.067829914 -0.19668898 0.067854665
0001d0 70 a0 e6 be 68 04 d0 be b6 81 4e be 2a 70 69 bd
       -0.4504428 -0.40628362 -0.20166668 -0.056991734
0001e0 44 33 9c bd d1 f5 f6 bd b7 06 b1 bd 1a c1 b6 bd
       -0.07626966 -0.120586045 -0.08643859 -0.0892355
0001f0 e9 f9 eb bd 98 d7 de bd 77 61 8c bd ce 2e 8c 3c
       -0.11522276 -0.10880965 -0.068545274 0.017112162

bn1.running_mean f4 [128]
000000 97 aa fc 3d db 8d 41 bd bb bf 1b 3e a8 96 83 3d
       0.12337225 -0.047254425 0.15209858 0.0642522
000010 d2 20 04 be ef b2 59 3d bb d2 29 be d7 2b cc bd
       -0.12903145 0.05314916 -0.16584294 -0.09969299
000020 c8 42 2c 3e c5 1d 2c 3e 24 82 cd bd 88 51 aa 3c
       0.1682235 0.16808231 -0.10034588 0.02079083
000030 0d 82 2e be 24 fb c5 bd 6f cc f5 3c 67 5b 25 be
       -0.17041798 -0.09667042 0.030004708 -0.16148148
000040 a4 64 7a bd f0 c4 a6 bd 96 8a 03 be 9f b2 be 3d
       -0.061131135 -0.081430316 -0.12845835 0.09311413
000050 c5 bb e5 bd a2 2b 1f 3e 51 18 08 3d d7 2f 6f 3d
       -0.11217455 0.15543988 0.033226315 0.058395233
000060 59 77 fe bd 91 4f 2a 3c 31 1e 24 3e f2 83 bb bd
       -0.124251075 0.010394947 0.16027142 -0.09156026
000070 81 dc 8d bd ac fd 85 bd bc af 10 bd 63 e7 d6 3d
       -0.069268234 -0.06542525 -0.035323843 0.10493352
000080 d8 fe b6 3d bf e3 78 bd 7c 16 f4 3d bf 18 22 be
       0.08935326 -0.06076407 0.11918351 -0.15829752
000090 cd 9c 5a bd 3f f2 e5 bc 3c 2d fc bb 7f 89 38 bc
       -0.053372193 -0.028069614 -0.007695822 -0.01126325
0000a0 1f 4d 79 3d db b8 6c 3d f5 e4 19 be 16 f4 92 3d
       0.060864564 0.05779348 -0.15028746 0.07175462
0000b0 2c 63 8c 3c c8 ea e7 3d cc b7 c2 bc fe 64 21 be
       0.017137133 0.11324078 -0.023769282 -0.15761182
0000c0 52 21 44 3d 9a ad 92 bd 16 69 e6 bd 02 5d ff bc
       0.04788334 -0.07162018 -0.11250512 -0.03117228
0000d0 d4 5b 0e 3e f6 ef 12 be 07 fb 8e bd 76 e6 29 be
       0.13902217 -0.1434935 -0.069814734 -0.1659182
0000e0 d1 4a f8 bc e4 c2 3e 3d 3f 62 af 3d a4 a7 56 bd
       -0.030309113 0.04657258 0.08563661 -0.05240597
0000f0 a4 96 01 3e 06 81 9c 3d cb a8 ce 3d c8 16 ba bd
       0.12655121 0.07641797 0.100907885 -0.090863764
000100 d6 eb f1 3d 70 66 39 bd f5 bb 04 3e 21 e7 fd 3d
       0.1181256 -0.045263708 0.12962325 0.123976
000110 12 23 1b be 1d aa 9a 3c 43 ef a9 3c fe 09 01 bd
       -0.15150097 0.018879944 0.020743972 -0.03150367
000120 0b e0 f9 3d 9c fe 87 3d 16 3c 2d be 7c d6 f8 3d
       0.12200936 0.0664036 -0.16917452 0.12150285
000130 bf 5a 22 3d ec f4 5c 3d ce bb 03 3d b9 36 2c 3c
       0.039637323 0.053944513 0.032161526 0.010511094
000140 80 51 bc bd da cb 02 3d d1 96 84 3b 54 aa 88 3d
       -0.091952324 0.03193269 0.004046299 0.066731125
000150 f5 43 24 bd 06 99 04 3e 40 b4 b2 bb 28 54 ec bc
       -0.04010387 0.12948999 -0.0054536164 -0.028848723
000160 87 a7 7c bd 52 d1 1f 3e 73 59 cb bb ff 78 89 bd
       -0.061683204 0.15607193 -0.0062057315 -0.06712531
000170 56 26 9d bd 36 ff 29 3e 69 f3 1c be cb 2f e2 bd
       -0.076733276 0.16601261 -0.15327229 -0.11044272
000180 ab 49 07 3c 1a cd 40 3d 99 3d ce 3c 6a fa 79 bd
       0.00825731 0.0470706 0.025175856 -0.06102983
000190 39 e2 ad bd 19 5b 30 3d 19 3b 22 be 93 15 16 3d
       -0.08490414 0.043055627 -0.15842856 0.03664167
0001a0 b7 db 37 3d 53 6a 07 be c6 fb e9 3d 15 b6 1f be
       0.04488727 -0.13224153 0.11424975 -0.15596803
0001b0 eb 4f cd bd 3f bf 33 be 9e e7 1f 3e ff 1a a0 3d
       -0.10025009 -0.17553423 0.15615699 0.07817649
0001c0 f0 8e af 3c f2 58 25 be 00 9a c9 3d 7b 92 bb bd
       0.021430463 -0.16147211 0.09843826 -0.09158798
0001d0 ee c3 17 be cc 0d c3 bd b6 71 d9 3c d7 28 23 be
       -0.14820835 -0.09524116 0.02654348 -0.15933548
0001e0 9a 8f 27 3e 81 9e 44 3d 07 b5 2f 3e c8 52 ba bb
       0.16363373 0.048002724 0.171589 -0.005686138
0001f0 97 d4 98 3d 1c 3e a9 3d 9a 42 e7 3d 2b 4d 99 3d
       0.07462423 0.082637995 0.11292 0.07485422

bn1.running_var f4 [128]
000000 d1 7f 7b 3c 57 01 69 3d 25 36 e3 3c 67 20 44 3d
       0.015350298 0.056886043 0.027735779 0.047882464
000010 3b d6 66 3d 7e 0c 53 3d 27 d6 29 3d c0 70 8a 3d
       0.05635665 0.051525585 0.041463997 0.067597866
000020 ab 0b 7c 3d 9f 6d 21 3c a2 44 2e 3d ae 80 24 3d
       0.061534565 0.009852796 0.042545922 0.04016178
000030 27 d6 10 3d 10 af 9f 3c 60 47 8c 3d ef 6e 37 3d
       0.03536048 0.019492656 0.06849551 0.04478353
000040 4a 70 83 3c 82 1e 08 3d da 6f 21 3d a7 60 89 3c
       0.016044755 0.03323222 0.03941331 0.01676972
000050 d2 65 60 3d 85 bb 81 3d 23 9e ff 3c ae 2e db 3d
       0.054784603 0.06334595 0.031203335 0.10702263
000060 ba 7e d2 3c 3c d2 ca 3c 20 8f 56 3d a6 40 dd 3c
       0.025695194 0.02475845 0.05238259 0.027008366
000070 55 88 2e 3c 08 32 7e 3d fe 04 a1 3d 8c 6e 4c 3d
       0.010652621 0.062059432 0.0786228 0.049910113
000080 41 4c 43 3c ee 65 2a 3d 88 5d c2 3c 0f 21 76 3d
       0.011920036 0.041601114 0.02372624 0.06009012
000090 40 ce 8b 3d e2 c2 61 3d 66 c5 72 3d 73 d8 bf 3c
       0.068264484 0.055117495 0.059270285 0.02341864
0000a0 18 16 ae 3d c9 83 7e 3d 31 2b 16 3d 2c ea 55 3d
       0.08500308 0.0621374 0.036662284 0.052225277
0000b0 7c 7a 78 3d d2 d3 36 3d 71 58 d8 3c b2 32 77 3d
       0.060663685 0.0446356 0.02640936 0.06035108
0000c0 74 33 31 3c 91 b3 c0 3c 1b 9d c6 3c 44 2c b9 3c
       0.01081549 0.023523124 0.024244836 0.022604115
0000d0 78 19 a6 3d d7 66 50 3d cd 83 6e 3d 4f a2 22 3d
       0.081103265 0.050879326 0.058231164 0.03970557
0000e0 17 15 0d 3d 09 ab 80 3d 26 ad 36 3d ab 67 19 3d
       0.03444394 0.06282622 0.04459872 0.03745238
0000f0 cc 75 2e 3d 46 c7 4f 3d 8e 7e 10 3d e4 2a c7 3c
       0.04259281 0.05072715 0.035276942 0.024312444
000100 72 37 d5 3b 25 5e 05 3d c1 3a be 3c 0f 07 55 3e
       0.0065068537 0.032560486 0.023221375 0.20803474
000110 50 23 ae 3c 44 09 1d 3d 43 56 4f 3d f4 76 5f 3d
       0.021257073 0.038338915 0.050619375 0.054556802
000120 15 f5 1d 3d 4e 19 7a 3c 4e a7 76 3c fa af 9f 3d
       0.038563807 0.015264822 0.015054537 0.07797237
000130 35 73 f6 3c 9d 76 a3 3c d5 d0 f6 3c f7 ca 51 3d
       0.030084232 0.01995402 0.030128876 0.051218953
000140 3f 4b 58 3d 76 aa 9b 3d 7c 30 f2 3c cd 4e bd 3c
       0.052806135 0.07600872 0.029564135 0.023108864
000150 b0 6d 6f 3d ac 04 28 3d c1 48 61 3d 01 ef 28 3c
       0.058454216 0.04102008 0.055001024 0.010310889
000160 cb cf 9f 3c 98 d5 94 3d 43 db 28 3d 3d a9 6c 3d
       0.019508263 0.07267302 0.04122473 0.057778586
000170 a2 8b ba 3d 94 90 25 3d 0c 56 b1 3c e6 a7 31 3d
       0.09108664 0.040421084 0.021647476 0.04337301
000180 d5 ad 74 3c 4b 80 82 3d f9 83 95 3d f3 fd 17 3d
       0.014934023 0.06372126 0.073005624 0.03710742
000190 31 ff 1f 3d d1 7f 0e 3d 6f 5a fe 3c 85 c9 c5 3d
       0.03906173 0.034789864 0.031048981 0.096575774
0001a0 b9 96 4b 3d f0 3a f3 3c 9c 5c 32 3c c9 8e e1 3c
       0.049704287 0.02969119 0.010886338 0.027533906
0001b0 d8 65 8f 3d 66 fd bc 3c f9 4d 84 3d 98 5a de 3c
       0.07001847 0.023070049 0.064601846 0.027142808
0001c0 6f fc 8f 3d 9d df 2b 3d ff 46 2c 3d 36 d5 9f 3d
       0.0703057 0.0419613 0.042059895 0.07804339
0001d0 09 df a4 3d 45 00 33 3d b7 5d 25 3d 2d d0 c5 3c
       0.08050353 0.04370143 0.040372577 0.024147118
0001e0 0d 35 cb 3d 14 96 1d 3d 2a a2 31 3d 78 0a 96 3d
       0.09922228 0.038473204 0.043367542 0.073262155
0001f0 1e 94 ac 3c ad 92 73 3d 44 b5 dc 3c fa f0 4c 3d
       0.021066722 0.059466053 0.026941903 0.0500345

fc2.weight f4 [128, 128]
000000 13 fe ed ba aa d2 a0 3d ca 26 b4 3d 72 00 85 3d
       -0.0018157385 0.07852681 0.08796461 0.064942256
000010 ea 35 1f bd 08 ea b8 3d dd cd cf bc bb 60 81 3d
       -0.038869776 0.09029013 -0.025366718 0.06317278
000020 68 d2 90 3d d0 83 f0 bb 33 88 29 be 56 0e 21 3d
       0.07071382 -0.007339932 -0.16555862 0.039320312
000030 4a 9f c4 be e7 a3 2d be 34 fe f0 bc a5 90 1b 3d
       -0.38402778 -0.16957055 -0.029418088 0.03797974
000040 8a e6 d4 bc 1e d2 aa bd af 09 0e 3c 2b de 27 bd
       -0.025988836 -0.08340858 0.008669301 -0.04098336
000050 dd bd b8 bd 2a ae 1a 3d 1f 2d 0e 3d 48 57 34 3c
       -0.090205885 0.037763752 0.034711 0.011007138
000060 e4 e9 ae 3c ab 1c fb bc 2d c8 be 3c 31 0b f3 3c
       0.021351762 -0.030653318 0.02328881 0.029668422
000070 4f 28 59 bd b3 02 27 be 51 54 b7 be 5c 17 b4 3d
       -0.053016957 -0.16309623 -0.35806516 0.08793518
000080 43 c7 b9 3d fb 9d 0a bd a1 f3 15 3c ef 4f b7 bd
       0.09071209 -0.03384207 0.009152324 -0.08950793
000090 b3 33 cc 3c 43 d5 24 bd f9 15 2f 3e d7 e8 9a 3d
       0.024926996 -0.040242445 0.17098226 0.07563942
0000a0 66 98 8e bd 7f b4 92 bd dd 40 70 3c 46 cb bb 3d
       -0.069626614 -0.07163333 0.014663902 0.09169631
0000b0 7c ee 7c bd ef 74 5a bd 9e 09 6d 3d b4 d9 89 bd
       -0.061750874 -0.053334173 0.0578705 -0.06730977
0000c0 39 9f b5 bc 19 0c 2d bc 34 68 04 3d 48 8e 87 bc
       -0.02217065 -0.010561966 0.03232594 -0.016547337
0000d0 02 1b 53 3e dc 8c be bd b0 c0 49 3c 53 aa f2 bc
       0.20615771 -0.093042105 0.012314007 -0.029622233
0000e0 41 1d 72 3d 6e 2f 9c 3c 94 a7 88 3d ca 65 71 be
       0.05910993 0.019065585 0.06672588 -0.23573986
0000f0 b8 ae 2d be 67 f8 1c 3d 67 5b 4e 3d ec b5 81 bd
       -0.16961181 0.038322832 0.050380137 -0.06333527
000100 24 5c d4 bc 06 aa f0 3d 11 6a f3 bd 4f 59 e7 3c
       -0.025922842 0.117511794 -0.11885465 0.028240828
000110 43 c2 c8 bd f0 af 8f 3d fd cd 76 bb f3 9d 7f bc
       -0.098026775 0.07015979 -0.00376594 -0.015601623
000120 f8 91 8c bc a3 d3 96 bd 8c 8f d8 3d f0 76 b9 3d
       -0.017159447 -0.07364585 0.105742544 0.09055889
000130 4a ea d9 3d 48 6a b3 bd 91 e2 dd bc 4c e6 48 be
       0.1064039 -0.08760506 -0.027085574 -0.19619101
000140 13 46 ac 3d 55 6b 09 3e 3a a7 d8 3d 86 3c 09 3e
       0.08411803 0.1341985 0.10578771 0.13401994
000150 68 75 40 3d 51 03 0b bd b0 39 1f be ad 70 c2 bc
       0.046986967 -0.03393871 -0.1554935 -0.023735369
000160 d3 35 f6 bd 4e 6a f9 3c 4d 4a 02 3e 87 7c 85 be
       -0.12021985 0.030446198 0.12723656 -0.2607157
000170 27 be 73 be 06 2e 9f 3d 11 e2 7e 3c 7c 5b 55 3e
       -0.23803006 0.0777245 0.015556828 0.2083568
000180 e3 f2 02 be 3d ce 10 3d ee a1 2f 3d 60 6a 8b 3d
       -0.12787966 0.035352934 0.042879038 0.06807399
000190 cd 26 c9 bc b5 2e b0 bc 5f b0 ae bd 29 8a 9e bd
       -0.024554634 -0.021506647 -0.08529734 -0.07741196
0001a0 4d 57 64 be ab 5f 3b bd 46 d7 52 bc 1a a1 8d 3d
       -0.22298928 -0.045745533 -0.012868708 0.06915493
0001b0 d9 31 fd bc 82 5c 1d 3e c8 cb ef bd 7a d0 c1 3d
       -0.030907558 0.1536732 -0.1170879 0.09463592
0001c0 29 b8 6a bd d4 23 f2 3c 14 17 21 3d a7 6f 9d 3d
       -0.057304535 0.0295581 0.03932865 0.076873116
0001d0 b6 0c 1c 3e 58 09 87 3d 55 74 0e 3e 7e 42 55 3c
       0.15239224 0.06593579 0.13911565 0.013016341
0001e0 0f 02 12 be a9 5e fd 3c 6c d3 aa 3e 91 cd c9 bd
       -0.14258598 0.030928927 0.33364427 -0.09853662
0001f0 82 62 cc 3d 50 4b da 3d 6c 0e 96 3d 02 a4 bb 3d
       0.099797264 0.10658896 0.073269695 0.091621414
000200 99 09 23 3e 78 c8 46 bd b7 60 e3 3d ed 7e b3 3d
       0.1592163 -0.048531026 0.11102431 0.087644435
000210 73 e0 4b 3e 52 03 f9 3c 7e 89 5c bd ac 24 58 3d
       0.1990984 0.030397091 -0.05384206 0.052769348
000220 32 f4 67 bd 9e 2d 91 bd 6f 0d a8 bd c6 0e 79 bd
       -0.056629367 -0.07088779 -0.08205687 -0.060805105
000230 df d9 d3 bd 18 aa 1d be b6 55 2a be 93 e8 89 3d
       -0.1034429 -0.15396917 -0.16634259 0.06733813
000240 d6 22 43 3d ab 85 3a 3d 56 61 9e 3d 06 f2 ba 3d
       0.047640644 0.045537632 0.07733409 0.091281936
000250 f6 8a 1d 3e c8 1d 23 bc 53 b7 82 3d ac b6 01 3e
       0.1538504 -0.009955831 0.063826226 0.1266734
000260 2d 22 b0 3c e1 ee 5d bd fc f4 83 bd 30 ed d5 3d
       0.021500671 -0.05418289 -0.064432114 0.104456306
000270 96 89 c2 3d f8 ac 20 3d 32 7e bb bb 29 50 18 bd
       0.09498899 0.039227456 -0.0057218308 -0.03718582
000280 0d 7a a3 3d 52 28 7e 3c e0 8a 37 3d 59 05 10 bd
       0.07982264 0.015512543 0.044810176 -0.03516135
000290 2e b9 9f 3d ce 75 27 3d 0a b0 9e 3d 98 a2 a6 3d
       0.07798992 0.04088383 0.077484205 0.08136481
0002a0 71 b9 af 3b 87 85 fa 3b ee df 45 bd 72 a4 5f 3e
       0.0053626825 0.007645312 -0.04830926 0.21840075
0002b0 6a 28 99 bd c9 06 d0 3c 20 9b 3d 3c f2 84 a3 bd
       -0.074784115 0.02539386 0.011572629 -0.07984342
0002c0 78 6b d5 3c 58 64 15 be 30 da 18 3c f7 9a 06 be
       0.026052222 -0.1458906 0.009329364 -0.13145052
0002d0 d5 0c 2a 3d 4d df a8 3d f4 50 86 3d 06 66 18 3e
       0.041516144 0.08245716 0.06558409 0.14882669
0002e0 b9 62 c2 bc 73 4c ba bc 6e f9 c3 bd 55 1d 31 be
       -0.023728715 -0.022741532 -0.09569059 -0.17296346
0002f0 74 1b fe 3d ba 2a 25 3d 95 bb 45 be 6f 51 e1 3b
       0.1240758 0.04032395 -0.19309838 0.0068761627
000300 a7 99 9c 3d ca 3b 0a bd 63 5c 22 be 45 30 13 3d
       0.07646494 -0.033748426 -0.15855555 0.035934705
000310 5b f2 8e bd 0c 4c 62 3d ec dc d4 bb fa 19 ce bd
       -0.069798194 0.055248305 -0.0064960625 -0.100635484
000320 c7 63 1a bd 89 a9 98 bd c5 a1 fb 3d 59 08 df 3d
       -0.03769281 -0.07454211 0.122867145 0.10890264
000330 c7 a2 af bc fe 8a 67 3d 92 d5 54 bd d7 c4 f0 3c
       -0.021439923 0.056529038 -0.05196149 0.029390736
000340 db f2 f3 3c ec 1e 24 be 7c db 76 3e 66 b8 f2 3c
       0.029778888 -0.16027421 0.24107164 0.029628944
000350 f9 a1 ec bd 7e de 3d 3e 48 5e a6 bc 14 52 a1 3d
       -0.11554331 0.18541905 -0.020308629 0.07876983
000360 64 39 0c bd c1 43 03 3d 92 06 3b 3d 1d 10 08 3d
       -0.03423442 0.032047037 0.045660563 0.03321849
000370 9e a3 7a bd f6 cd 86 bc 63 30 c0 bc d7 56 e6 be
       -0.061191194 -0.016455632 -0.023460573 -0.4498813
000380 19 3e aa 3d 29 94 cc bc 4b 3b 0a 3e fe 5c cb 3d
       0.083126254 -0.024972992 0.13499181 0.09929846
000390 dd cd 15 be 91 d6 18 3e a2 9c f6 3d bf d9 7f 3d
       -0.14629312 0.149256 0.12041594 0.06246352
0003a0 ca 40 06 bd 3e 0d 32 bc c3 3a 80 3d 28 32 59 3c
       -0.03277663 -0.010867415 0.06261208 0.013256587
0003b0 cf 00 ff bc 6e b2 81 3c f0 de 25 3e ab 7c 02 3e
       -0.031128315 0.015832152 0.16198325 0.1274287
0003c0 51 4d b1 bd 6b cd 64 bd 10 64 3f 3d ca b2 b2 bd
       -0.08657325 -0.055859964 0.046726286 -0.087255076
0003d0 98 e0 80 bd 80 b0 b4 3d 52 cb 15 bc 71 30 28 be
       -0.06292838 0.08822727 -0.009142714 -0.16424729
0003e0 03 34 2f bd ff 1c 47 3e f3 fb 3e be e6 bd 13 3d
       -0.04277421 0.19444655 -0.18650798 0.036069773
0003f0 14 de 77 bd 3c 44 24 3c 66 ff 8e 3c 0d 46 bf 3d
       -0.060514525 0.010026034 0.017455768 0.09339533

fc2.bias f4 [128]
000000 07 62 5f 3d c8 7b 9f bd 35 c1 51 bd 14 e5 9f bc
       0.054536846 -0.07787281 -0.051209647 -0.019518413
000010 24 ea 6b bd 58 fe 84 bc 56 93 82 bd e7 a7 c7 bc
       -0.05759634 -0.016234562 -0.06375758 -0.024372054
000020 3a cd d6 3b e8 b0 6a bd 85 83 03 bd eb 70 10 3c
       0.0065552266 -0.057297617 -0.03210785 0.008815984
000030 2a b4 71 bd 69 59 98 3d bc 29 63 3d 9d c2 49 bd
       -0.05900971 0.07438929 0.055459723 -0.049257863
000040 9c de aa 3d 0a d1 a0 3c 05 80 5f 3d c0 a6 b0 bd
       0.083432406 0.019630928 0.05456545 -0.08625555
000050 31 68 a7 3c c1 4d 03 bd 9d cb 46 bd 58 22 53 bd
       0.020435425 -0.032056574 -0.048534025 -0.051546425
000060 9f 54 ec bc f4 3b 1b bd b1 d1 ac 3c 4c 7c 05 3d
       -0.028848944 -0.037898973 0.021096082 0.03258924
000070 3e 14 88 3d 1c e0 a8 3d 33 26 8a 3d a4 0c 58 bd
       0.06644486 0.082458705 0.06745567 -0.05274643
000080 33 d9 81 bd b2 8e c6 bc e7 4d 3e 3d 78 23 40 3d
       -0.063402556 -0.024237964 0.046461012 0.046908826
000090 ce f2 72 bd 85 77 ec bc e1 df ab bd 9a 31 5f bd
       -0.059313588 -0.028865585 -0.08392311 -0.054490663
0000a0 76 8c d9 3c 43 cb 6e bd bb 46 1c bc 2a 06 13 3d
       0.026556235 -0.058299314 -0.009538348 0.03589455
0000b0 9e 1c 43 3c 79 b1 e0 bc 91 1d 20 3c 98 a4 93 3d
       0.011908678 -0.027428376 0.009772674 0.07209128
0000c0 c9 fd 4f bd c5 b0 8e bd 54 a1 1d bd 95 e2 8b 3d
       -0.050779138 -0.0696731 -0.038483933 0.068303265
0000d0 46 1b a5 3d 59 ed 84 bd ca 7e 8d 3d c1 3c 07 3d
       0.080618426 -0.06490583 0.06908949 0.033016924
0000e0 61 fc 58 bd c6 cc 9e 3d 4b 60 32 bd e9 07 a1 bd
       -0.052975062 0.07753901 -0.043548863 -0.07862837
0000f0 85 aa 8b bd ec 88 8f 3d e9 5c bd 3c 8e 78 73 bc
       -0.068196334 0.07008538 0.023115592 -0.014860285
000100 71 4c 7c 3c 14 cc 24 3d 19 a2 ac bd 2f 1c 90 3d
       0.015399084 0.040233687 -0.08429355 0.070366256
000110 75 f1 05 3d 21 e7 39 bd 04 f0 8b 3d 02 3a 36 3d
       0.032700974 -0.045386437 0.06832889 0.044488914
000120 7d ef 8e 3d fe 7f 54 bc 53 95 ae bd 07 0a bb bb
       0.069792725 -0.012969969 -0.08524575 -0.0057079825
000130 a0 e2 7c 3c 7f df 4e 3d 9d 60 48 3d 8e 84 8a bc
       0.015434891 0.05050611 0.048920263 -0.01690891
000140 78 41 9f 3d f3 1a b2 3d 9f 32 9c 3d 49 14 0e bb
       0.07776159 0.086965464 0.07626843 -0.0021679571
000150 a8 17 94 bd 58 76 0a bc 78 1d 22 3d 95 ee c8 bc
       -0.072310746 -0.008451067 0.039578885 -0.024527827
000160 26 b2 b4 bc b0 52 11 bd 10 16 4f 3d 1f c2 4e 3d
       -0.022057604 -0.035479248 0.05055815 0.050478097
000170 1f 39 ca 3b 75 90 5c 3d 89 eb 24 bd f2 9a 69 bd
       0.00617136 0.053848702 -0.040263686 -0.057032533
000180 29 75 c2 bc 8a 35 71 3d 79 48 58 bd 9f ae 40 3d
       -0.023737507 0.05888895 -0.05280349 0.04704153
000190 01 94 81 3c ba ee 85 bd 47 fc a8 3c c5 72 72 bc
       0.015817644 -0.06539674 0.020628108 -0.014797871
0001a0 e0 0f 4c bd 1e 88 6b 3d e8 54 8e 3c 9f 20 7b 3d
       -0.049819827 0.05750286 0.01737447 0.061310407
0001b0 c9 24 b7 3c f9 17 1f bd a6 ad a3 bc 8f 73 91 bd
       0.022356408 -0.03884122 -0.019980263 -0.07102119
0001c0 95 49 95 3d b8 cd 76 3d 33 15 bf 3b 14 76 97 bd
       0.07289425 0.060254782 0.0058313846 -0.073955685
0001d0 41 19 a3 3d d3 6f 31 bd a0 d4 a4 bc ff f6 3b 3b
       0.07963801 -0.043319535 -0.020120919 0.0028681157
0001e0 a4 9a 76 bd 89 56 a7 3d 9e 89 4b 3d 62 23 72 bd
       -0.06020607 0.08170802 0.04969179 -0.059115775
0001f0 b9 1d 47 3d 1f 74 a0 bd 02 5e 64 3b 70 ff a0 bd
       0.04861233 -0.07834648 0.0034846072 -0.07861221

bn2.weight f4 [128]
000000 0e 7d 70 3f a7 a8 86 3f ad 7b 7a 3f cf b6 90 3f
       0.9394082 1.0520219 0.97844964 1.1305789
000010 23 1f 9e 3f 76 81 a5 3f 35 5f 23 3f 79 1d 8a 3f
       1.2353252 1.2930133 0.6381715 1.0790244
000020 27 5b 6a 3f 61 62 86 3f 2c 49 c1 3f 50 5a 40 3f
       0.9154534 1.0498773 1.5100455 0.75137806
000030 a6 90 91 3f 40 7e a7 3f b3 ed 9b 3f 93 02 43 3f
       1.1372268 1.3085403 1.2181915 0.761758
000040 a3 6b a6 3f 9a c2 a6 3f 21 45 b7 3f 36 13 90 3f
       1.3001598 1.3028138 1.4317971 1.1255863
000050 d0 ca 7a 3f 93 9a 86 3f d5 45 7c 3f 7c 26 9a 3f
       0.9796572 1.0515922 0.98544055 1.2042994
000060 8e d6 9c 3f 7f 94 52 3f 0a aa 81 3f 0c 7b 82 3f
       1.2252977 0.8225784 1.0130017 1.0193801
000070 4f ac 53 3f cd d5 6e 3f e0 88 70 3f 93 2f 9e 3f
       0.826848 0.93294984 0.93958855 1.2358268
000080 5e bc a4 3f c8 87 89 3f fa dc da 3f 96 a3 70 3f
       1.2869985 1.0744562 1.7098687 0.9399961
000090 70 db 8e 3f 42 57 b7 3f 25 69 69 3f 68 8a aa 3f
       1.1160717 1.4323504 0.9117606 1.3323488
0000a0 47 93 14 3f db 08 8c 3f 67 6c 49 3f 99 3e 9e 3f
       0.5803723 1.0940202 0.78681034 1.2362853
0000b0 3e a8 8f 3f 60 0e a1 3f 42 dd 7b 3f 87 dc 69 3f
       1.1223218 1.2582512 0.9838449 0.91352123
0000c0 66 92 75 3f 14 9f c1 3f dc 7d 5f 3f a4 7c 43 3f
       0.9592651 1.5126672 0.8730142 0.7636206
0000d0 6d 5b 57 3f 3e de 8f 3f 73 79 4f 3f f1 2c d0 3f
       0.8412388 1.1239698 0.8104469 1.6263715
0000e0 60 66 87 3f 02 61 95 3f 32 cd 4e 3f 66 0e d1 3f
       1.0578117 1.167023 0.80781853 1.6332519
0000f0 bb 5d 44 3f 0d 00 eb 3f 31 0c 6c 3f 79 81 b4 3f
       0.7670552 1.835939 0.922061 1.4102012
000100 15 e8 aa 3f 9d d3 34 3f b5 a1 b1 3f 7e 93 88 3f
       1.3352076 0.70635396 1.3877474 1.0670011
000110 56 7d 93 3f 9b 08 80 3f db 6b 9b 3f 4a 86 67 3f
       1.1522624 1.0002626 1.214229 0.90439284
000120 8c a1 60 3f 0a 64 3f 3f df ba c1 3f 6d 12 a2 3f
       0.877465 0.7476202 1.5135154 1.2661873
000130 5c b8 85 3f f7 38 ab 3f 67 68 06 40 fa 2b a6 3f
       1.0446887 1.3376759 2.1001222 1.298217
000140 b3 ee b0 3f 45 54 2c 3f e6 31 d2 3f fe d6 80 3f
       1.3822845 0.67316085 1.6421478 1.006561
000150 a8 cf 84 3f 9a eb 7e 3f 1d a0 cc 3f b8 16 db 3f
       1.0375872 0.9957825 1.5986363 1.7116308
000160 a3 b5 b3 3f 6d 14 be 3f bb 1f 87 3f 34 4e 90 3f
       1.4039806 1.4849983 1.0556558 1.1273866
000170 f0 29 75 3f a7 d4 88 3f 47 1d 67 3f 43 68 c2 3f
       0.95767117 1.0689896 0.9027905 1.5188068
000180 17 96 c9 3f 92 b5 84 3f 56 70 7e 3f 68 db 4c 3f
       1.5748929 1.0367911 0.9939016 0.8002229
000190 f8 ab c5 3f 27 b3 d5 3f 05 f1 69 3f ab 62 80 3f
       1.5443106 1.6695298 0.9138339 1.0030111
0001a0 24 82 eb 3f ea 97 60 3f 55 eb c8 3f 83 a8 a0 3f
       1.8399091 0.877318 1.5696818 1.2551426
0001b0 45 49 af 3f e7 4a d2 3f d8 80 be 3f 84 27 92 3f
       1.3694235 1.6429108 1.488307 1.1418309
0001c0 a4 0e 8c 3f b2 a5 69 3f 83 e5 5c 3f 8f 52 8d 3f
       1.0941968 0.91268456 0.8628771 1.104082
0001d0 b2 95 b3 3f ee 2c dd 3f 46 e2 67 3f 5a 9c 8a 3f
       1.4030058 1.7279336 0.9057964 1.0828965
0001e0 14 8f 52 3f 19 39 79 3f 71 47 85 3f 20 b5 7e 3f
       0.8224957 0.9735275 1.0412427 0.99495125
0001f0 28 06 99 3f 16 fd a4 3f 12 e4 24 3f 93 31 94 3f
       1.1955004 1.2889736 0.6441051 1.1577629

bn2.bias f4 [128]
000000 ed aa c1 3d 48 34 50 bd dd de c4 3d 5e b1 26 be
       0.0945643 -0.05083111 0.0961282 -0.16278598
000010 fa be 83 3c ec 5a 85 3d b6 5d a1 bc 64 b6 35 bf
       0.016082276 0.065114826 -0.019698005 -0.7098143
000020 c2 f4 ee 3d 95 07 f3 bd ae cf a5 3e 77 ce 07 3e
       0.116677776 -0.118666805 0.3238501 0.13262354
000030 22 18 9b 3e e8 77 e8 bc e8 b5 52 3e 05 2d 20 3e
       0.3029185 -0.028377488 0.20577204 0.15642174
000040 8a f5 e6 3d da d0 df bd a1 bd 54 3d 60 7c 36 3e
       0.112773016 -0.10928507 0.051938657 0.17820883
000050 76 69 b3 be ac 65 44 3e a8 dc e4 be 88 02 46 3d
       -0.35041398 0.1917941 -0.44699597 0.048342258
000060 e1 95 33 3e fb ca fb bd 62 19 da be 61 48 b3 be
       0.17537643 -0.12294575 -0.4259749 -0.35016158
000070 cd 3d b7 3d 64 72 2f be db 17 2b be f3 90 dd be
       0.089473344 -0.1713348 -0.16708319 -0.4327465
000080 39 fc 72 3a fb 8c 7f 3e 72 de 61 3e 0c 6a a6 3e
       0.00092691515 0.24956124 0.22057512 0.32502782
000090 71 c3 f6 be c5 30 a1 be 82 fd d0 3d 99 e8 df 3b
       -0.48195985 -0.3148252 0.10204603 0.0068331477
0000a0 9f 43 f9 bd a2 21 18 bd df 2c 24 bd f2 10 79 3d
       -0.12171101 -0.03714145 -0.040081855 0.060807176
0000b0 66 5f 29 3d 24 9c 27 3e ff a9 d4 3d 59 b3 d5 be
       0.041350745 0.16368157 0.10383987 -0.41738394
0000c0 9b 69 da bd 60 69 af be 38 b3 7e be cb 9c 8f be
       -0.10664674 -0.34260082 -0.24873054 -0.2804931
0000d0 a6 ad c6 3c 3c a6 b9 bc 55 58 c2 3d 6f 4c ed be
       0.024252724 -0.022662275 0.09489504 -0.46347377
0000e0 80 88 f5 bd a6 e4 05 be 94 70 25 3e 13 cb 98 3e
       -0.11988926 -0.13075504 0.16156226 0.29842433
0000f0 65 ef 9d be b8 d9 3c be 7d 2c a9 3d 97 b0 92 bb
       -0.30846706 -0.18442428 0.082604386 -0.0044766176
000100 9b f3 a5 3d f0 df 20 3e 91 99 96 3c 73 2b 20 bf
       0.08103105 0.15710425 0.018383773 -0.625663
000110 5d 34 0e 3d 74 10 e0 3d e2 15 cf 3d 44 be 67 bc
       0.034717906 0.10940638 0.10111596 -0.014144484
000120 df 51 47 3e d0 2d 68 ba f3 d8 06 3e 4f c4 81 3e
       0.19464825 -0.0008856924 0.13168697 0.25345084
000130 41 a5 00 be 92 51 d4 3e a8 c3 4c bd d0 26 79 be
       -0.1256304 0.41468483 -0.04999128 -0.24331212
000140 85 66 9f be 62 95 89 bb da 2c dc be 7e 62 ad bd
       -0.31132904 -0.004198716 -0.4300297 -0.084660515
000150 d8 ba 9d bd bf 34 0d bd 1b e1 ad 3c 4b df 79 be
       -0.07701653 -0.03447413 0.021225503 -0.24401586
000160 99 26 83 3c d8 87 ba 3e b1 61 4c be d4 30 57 3e
       0.016009616 0.36431766 -0.19959141 0.2101472
000170 c3 74 4c be 95 57 cb 3d 93 41 47 3d 7d 80 bf 3d
       -0.19966416 0.09928814 0.04864652 0.09350679
000180 fc ec c5 3e 2c a6 c6 bb 6e 66 9b be 98 ce 40 3d
       0.38657367 -0.0060622897 -0.30351585 0.047072023
000190 71 02 c2 3d 44 db b6 3e 12 32 38 3e ee 2f ba bd
       0.09473122 0.3571416 0.1798785 -0.09091173
0001a0 1b 13 2c 3d 6d 82 48 be ca 9e 83 3e 36 48 1f 3e
       0.042010408 -0.19581003 0.25707084 0.1555489
0001b0 88 2d da bd a9 ac 81 be 90 c3 39 be 6b 8c bb 3d
       -0.10653216 -0.25327042 -0.18141007 0.09157642
0001c0 d0 93 0a 3e f9 60 c9 3c 2a aa 8b bd 5a e8 16 3c
       0.13532948 0.024582373 -0.068195656 0.00921067
0001d0 33 72 85 bc 1c a0 00 bd 36 7e 07 3e 96 b9 da 3d
       -0.016289806 -0.031402692 0.1323174 0.10679929
0001e0 91 c8 55 3b 26 4b 23 be 77 6e e1 bc 62 6e b0 bd
       0.0032620768 -0.15946636 -0.027518494 -0.08614804
0001f0 af 10 8b be a3 72 b1 bc d6 16 a5 3e 53 4d 2b 3d
       -0.27161166 -0.021661108 0.32243985 0.04182179

bn2.running_mean f4 [128]
000000 16 1b 35 3d 58 7f 71 3e 51 ba 0e be 42 40 5a 3e
       0.044215284 0.23583734 -0.13938262 0.21313575
000010 fe 07 0f be 4e a4 2c 3e 1a 95 93 3e 86 eb da bd
       -0.13967893 0.16859552 0.28824693 -0.10689454
000020 2f c6 a6 be fd 60 f2 3e 00 a0 9b 3e f8 eb 3e be
       -0.32573077 0.4733962 0.30395508 -0.18644702
000030 08 12 75 3d fe dc 1e 3f ec 6e b9 3c 9d df 0c be
       0.05983165 0.6205596 0.0226359 -0.13757177
000040 b1 52 5e 3d c3 d1 df bd dc 52 4e 3e de f0 18 3c
       0.05427808 -0.10928681 0.20148796 0.009334771
000050 91 ea 16 3d 6d fb 31 be 8a 98 c5 3d 23 45 e1 ba
       0.036844794 -0.17381068 0.09648235 -0.0017186742
000060 4b 90 68 be 0f ce 45 be 4b 3b fa bd b5 1c 2f be
       -0.22711293 -0.19316886 -0.122183405 -0.17100795
000070 b7 7c 0a 3e ad 13 27 3f 39 44 d2 3e eb 08 da bc
       0.13524137 0.652644 0.41067675 -0.02661558
000080 6b da 8c bd 48 23 a2 bc 0f a8 b6 3e 96 a2 b5 3d
       -0.068775974 -0.019792214 0.35675094 0.088689014
000090 a8 82 72 3e c5 40 0d be ee e9 0b bf 8a 38 9a 3e
       0.23682654 -0.13794239 -0.54653823 0.3012126
0000a0 19 54 43 be 56 01 5d be d8 53 8b 3e 66 74 c8 3e
       -0.1907505 -0.21582541 0.27212405 0.39151305
0000b0 9e 58 8a 3e 0c 27 42 be 8a 30 96 be b6 e2 e1 3e
       0.27020735 -0.18960208 -0.29333907 0.4411828
0000c0 9b 07 5f 3a 7b 1f ac 3b d4 cc f7 bd 3c b2 66 3e
       0.0008507908 0.005252776 -0.12099615 0.22528929
0000d0 cd 09 0a 3e 90 0a a9 3e e7 60 b1 3e f0 2e 44 3d
       0.13480301 0.3301587 0.34644243 0.047896326
0000e0 74 18 8e be 43 95 ef 3d 63 26 37 3e 05 6e 7f be
       -0.2775303 0.11698391 0.17885737 -0.24944313
0000f0 ca 5a 46 be 8b 53 c7 3d 5e 9d 9a be 55 14 ab 3e
       -0.19370571 0.097327314 -0.30198187 0.3341395
000100 88 29 3e 3e b6 21 62 3e 90 95 90 be d3 c1 e6 3e
       0.1857053 0.22083172 -0.28239107 0.4506975
000110 15 25 85 3e 49 71 87 be f4 4c 1d 3f 48 5d bc 3d
       0.26004854 -0.26453617 0.61445546 0.091974795
000120 23 7d b3 3d b8 7b 51 bd 6e 0c 2f 3e 84 61 5c be
       0.08764102 -0.051143378 0.17094585 -0.21521574
000130 77 78 18 3e fb 64 b0 be d2 4b 78 3d 3d 86 e2 3e
       0.14889704 -0.34452042 0.060619183 0.4424304
000140 8a 7e 77 3d 2b 96 1c 3d 42 6d aa 3e 34 71 a0 3b
       0.06042341 0.03822915 0.33286482 0.0048963074
000150 cd 7d 38 3d d1 c1 ec 3e e1 3d 95 bb 4b 31 2b bd
       0.045041848 0.4624162 -0.0045544957 -0.041795056
000160 73 b0 63 3e 02 0b bb 3e a9 a3 9c 3e 04 ef d8 be
       0.22235279 0.36531836 0.30593613 -0.42369854
000170 86 c9 b0 3e ff 20 13 3f 15 3e a2 3e 18 51 b9 3e
       0.3452875 0.57472223 0.3168799 0.36194682
000180 b2 de b9 3e 48 92 ec bc 6e ee 2a be c8 97 35 bb
       0.36302716 -0.028878346 -0.16692516 -0.0027708877
000190 9f c7 03 3e da f6 f5 3d b4 6d 64 3e e5 e8 02 be
       0.12869118 0.12009974 0.22307473 -0.12784155
0001a0 e8 17 a0 3d cd 30 96 3e d7 d6 89 3c 48 ee ed 3e
       0.0781706 0.29334107 0.016826076 0.46470857
0001b0 5c 76 91 3e c8 8f 5d be 32 c4 ba 3e c7 3c 93 3e
       0.28410614 -0.2163688 0.3647781 0.28757307
0001c0 0a ff 08 3f 5e ea 8f be dd 83 bf 3d 56 4d 31 be
       0.5351416 -0.28108495 0.09351323 -0.17314658
0001d0 bc e4 eb bc 4c bb 4d be 9f 87 6e 3e e9 e2 95 3e
       -0.028795592 -0.2009098 0.23293923 0.2927468
0001e0 da d8 a7 3e cb ab 0d 3e 6d b6 94 3e ed 81 4d 3d
       0.32782632 0.13835065 0.2904543 0.050172735
0001f0 c3 91 80 bd 1a a5 7b 3e 2d 2e 01 3e d9 68 a4 3d
       -0.06277802 0.245747 0.12615271 0.080278106
